model_file/attribute_el.pth (torch, 687306 bytes, 18 tensors)

bias f4 [32]
000000 13 5e 50 3b bd 90 a3 bc c2 37 d2 bb 51 91 d5 3b
       0.0031794354 -0.019966478 -0.0064153383 0.006517567
000010 a9 a0 45 bc a3 a8 94 bb 5d 7a 18 bc 0e 3c d7 ba
       -0.01206223 -0.0045367046 -0.009306517 -0.0016421096
000020 a2 27 5c 3b 1b af de bb bc 77 3e bb e0 b2 2d bc
       0.003359296 -0.0067957765 -0.0029063066 -0.010601729
000030 a8 24 07 bc 60 b5 73 bc 54 63 0b bc 91 2f 02 bc
       -0.008248486 -0.014874786 -0.008507568 -0.007945911
000040 91 45 e9 bb 43 c7 b3 bb 23 b9 7f bc 04 46 3f bc
       -0.0071188887 -0.0054864003 -0.015608105 -0.011674408
000050 a1 6f f7 bb 6d 92 74 bc 03 21 4f 3b ba b5 90 bb
       -0.007551149 -0.014927489 0.003160537 -0.0044161947
000060 ea a0 53 bc ba 0b 9b bc 73 03 a4 3a 52 4d 35 bc
       -0.012916783 -0.01892649 0.0012513235 -0.011065798
000070 21 b3 0e bc 58 54 7c bc 69 36 cf bb db 79 79 bb
       -0.0087097 -0.0154009685 -0.006323625 -0.0038067016

weight f4 [32, 5000]
000000 b1 05 11 3d 47 82 96 3b 5e d7 bc 3c 6b f2 ff bb
       0.03540582 0.004593167 0.023051914 -0.007810881
000010 38 fc 25 3c 2b 3c 4a bd ba 71 b8 3c a8 c4 bb 3b
       0.010130934 -0.049373787 0.022515167 0.0057302304
000020 ff e7 f7 3c d4 04 ce 3c 7d 77 3e bd 3f bc 9f 3a
       0.030261992 0.025148787 -0.04650067 0.0012186839
000030 bb 8b 5d ba 17 c9 03 3c 98 4a 4d bd a3 c2 b3 3c
       -0.00084513024 0.008043549 -0.050119966 0.021943396
000040 67 fe 00 3d 2b 6f 08 bd a3 54 f8 3c b9 82 c3 bc
       0.031492617 -0.033309143 0.030313795 -0.023866044
000050 79 80 d0 bb 72 cb 3f bd be 07 8a 3c 0d 8a af 3c
       -0.0063629714 -0.04682488 0.016849395 0.021428132
000060 c1 34 45 3c e7 69 1b bb 26 67 3b 3c 84 4c d6 3c
       0.012036503 -0.0023714246 0.011438167 0.026159532
000070 fd 06 af 3c 43 85 40 bc bf 62 b2 3c fb 71 e9 bb
       0.021365637 -0.011750522 0.021775601 -0.0071241832
000080 a8 16 3b 3d 0a e7 39 bd fb 69 42 bd 4c 15 5e bd
       0.045675904 -0.04538635 -0.047464352 -0.05421953
000090 08 2a da b9 52 40 94 bc 15 ef bc bb 47 8d 0a 3b
       -0.00041611516 -0.018097077 -0.0057658055 0.0021141337
0000a0 3d 60 5b ba ab d9 b5 3c a9 b4 a2 ba 0c d9 92 3a
       -0.00083685276 0.022198519 -0.001241346 0.0011203601
0000b0 68 26 56 bc 15 59 34 3c 94 b8 51 ba 26 30 47 bb
       -0.01307068 0.011007567 -0.00080002216 -0.003039369
0000c0 de 52 9d 3c a7 7e 42 bd 43 e6 0f 3b e2 03 39 3d
       0.019204553 -0.047484066 0.0021957315 0.04516972
0000d0 6c 72 4f bd 56 2c 06 bc 66 f5 e7 3c 70 e7 0b bb
       -0.05064623 -0.008189281 0.028315257 -0.0021347664
0000e0 2d c7 75 3c 17 ee 5d bd 0e 86 5a 3c e6 f1 a5 bb
       0.0150011005 -0.05418214 0.013337625 -0.005064237
0000f0 e5 b7 fa 3c b4 4a be bb 02 86 50 3c fd 76 f1 3c
       0.030605266 -0.005807245 0.012727262 0.029475683
000100 16 55 c0 3c a9 ec ef b8 c5 14 c5 3c 19 d1 2b bc
       0.023478072 -0.000114404895 0.024057755 -0.0104868645
000110 78 98 34 3d e0 a9 c8 ba 76 97 0c bd 51 32 ca 3c
       0.044090718 -0.0015309416 -0.034324132 0.024682196
000120 41 5b 49 3d 66 b6 b9 bb a5 e6 bd 3c b6 a2 39 3b
       0.049159292 -0.0056674955 0.023181269 0.0028325743
000130 24 28 9f b6 d9 f1 38 3c 47 2f aa 3b de 7f e6 ba
       -4.7432422e-06 0.01128813 0.005193624 -0.0017585715
000140 58 4a ec 3c 2d 51 b4 3c db e7 cd 3c 48 4c 4e bb
       0.028844044 0.022011364 0.025134971 -0.0031478573
000150 ea d7 36 ba fa df 09 3c a9 07 16 bd 19 8d dd ba
       -0.0006974923 0.008415217 -0.0366284 -0.0016903012
000160 b6 20 f5 3b fd 78 3e 3c 23 2f 2d 3c f5 64 13 3c
       0.007480706 0.011625526 0.01057032 0.008996238
000170 a6 da 6b bb 64 79 96 bc 7f 15 d2 3c 9a 39 1b 3c
       -0.003598848 -0.01836843 0.025645016 0.0094741825
000180 85 91 c0 3c ee 8d a2 ba 76 3e 8c bc e9 4c b9 3c
       0.02350689 -0.0012401917 -0.017119627 0.022619681
000190 f6 71 b5 3c 0d a3 1c 3d ee 7b 8b 3c a7 dd 4e 3d
       0.022149067 0.038241435 0.017026868 0.050504353
0001a0 59 a3 40 3c 3e b4 20 3c 72 f8 47 3c 65 92 5e bb
       0.011757695 0.009808598 0.01220523 -0.003396177
0001b0 cf d6 c8 bb 36 86 ca bc 9a 94 4d 3c 98 50 8c 3c
       -0.006129123 -0.0247222 0.012547636 0.017128274
0001c0 76 df fe 3c 8c ce 8d bc 62 50 a5 bc 50 c0 e6 3b
       0.031112414 -0.017310403 -0.020179931 0.0070419684
0001d0 df cf 80 3c d6 1c da bb f8 6f 91 3b e5 fe ac 3c
       0.01572412 -0.0066562695 0.0044383965 0.021117637
0001e0 7f c9 a4 bb ff 11 12 bb a6 40 12 bd 05 38 3b bd
       -0.005028903 -0.0022288559 -0.035706185 -0.04570772
0001f0 41 01 1d 3c 4f cb 8d 3c 63 d1 4a 3b c8 e9 67 b9
       0.0095828185 0.01730886 0.0030947558 -0.00022116967
000200 72 0c 90 3c 85 68 f8 3a 44 34 11 bb 6d 50 ef b8
       0.01758406 0.0018952048 -0.0022156397 -0.000114113886
000210 59 1e 30 bd a8 79 cb 3c 0d 9b e4 bc 6f c4 f0 3b
       -0.04299769 0.024838284 -0.027905965 0.0073476355
000220 3f 9e 1e 3d c7 1e a5 bc 3f 45 a4 3c 19 0f 32 bd
       0.038725134 -0.020156277 0.02005255 -0.04347143
000230 63 cd 85 3c 47 a6 3d bb df d1 53 bd ea f0 3b bd
       0.016333288 -0.002893822 -0.05171382 -0.04588405
000240 70 5e 36 bd 76 d5 29 bd 71 25 39 3d df 89 46 3a
       -0.044523656 -0.041463338 0.045201723 0.0007573645
000250 8f a3 20 3b 61 45 99 3b d0 c4 0f 3d 42 c4 05 bb
       0.002451155 0.00467746 0.035099804 -0.0020411168
000260 e1 b7 63 bb 5f c4 6f bb b8 54 44 3b 1a 80 4b bd
       -0.0034747052 -0.0036585552 0.0029957723 -0.049682714
000270 e7 c0 1c bd f4 b8 fc 3c a3 f1 d4 bb 02 ea a4 3c
       -0.038269904 0.030849911 -0.006498532 0.020131115
000280 bb e4 00 3d b2 7d f9 3c 78 e0 7c 3c 27 99 8e bb
       0.031468134 0.030455444 0.015434377 -0.0043517533
000290 5c cf 08 3d dc 16 fe 3a 20 2f 12 3d c6 66 2a bd
       0.03340088 0.0019385475 0.035689473 -0.04160192
0002a0 f2 e3 16 3d e7 ba af 3c 7c 7e 71 bc 8c 45 92 bc
       0.03683848 0.021451427 -0.014739629 -0.017855428
0002b0 57 93 d3 bc a8 b5 b8 ba b8 44 c5 3c 3a 33 c0 bc
       -0.025827093 -0.0014092224 0.02408062 -0.023461927
0002c0 4b a8 24 ba 2e 0e 3a bd b7 99 f8 3c ea f7 63 3c
       -0.0006281181 -0.04542368 0.030346734 0.013914088
0002d0 95 0a 00 3d 62 98 d7 3c e3 c6 fd 3b f1 68 50 bc
       0.03126009 0.026317779 0.0077446564 -0.0127203325
0002e0 dd 6f b9 3c a7 ab be 3c c8 b0 4b 3c 8d 61 9b 3c
       0.022636348 0.02327521 0.012432285 0.018967414
0002f0 f2 83 45 3c a0 b3 05 3d 3a 09 ef 3c cf cc 54 bd
       0.012055384 0.032642007 0.029179204 -0.051953133
000300 a2 2a c4 3c b7 08 f8 ba 31 f6 5d bd bf a5 98 3b
       0.02394611 -0.0018923496 -0.054189865 0.0046584303
000310 1a 05 65 3b d0 5f 1d bb 6b 00 5d bd 15 ad 62 bd
       0.0034945668 -0.0024013408 -0.053955477 -0.055340845
000320 27 98 be ba 62 47 08 3b 0b 5b 4d bb df 03 f7 bb
       -0.0014541195 0.00207945 -0.0031334783 -0.0075383033
000330 a4 d0 09 3d 24 42 50 3b c0 ce 6f bc ef 61 c0 3c
       0.03364624 0.0031777704 -0.014636695 0.023484198
000340 1e 5a f5 3c 34 78 47 bb ef 4c 61 b8 40 d9 f6 bc
       0.029950198 -0.0030436637 -5.371583e-05 -0.03013289
000350 68 13 70 bc 36 3c d8 bc 1f 8e ff bc a0 1b 84 3c
       -0.014653064 -0.026395898 -0.031195698 0.016126454
000360 eb 83 0f 3c 6c 11 5d 3c 0c 60 da bc 8d c1 40 bd
       0.008759479 0.013492923 -0.026657127 -0.047059584
000370 1d e0 aa 3c e5 26 0e 3b 3d 97 bb bc b1 01 b6 3c
       0.020858819 0.0021690663 -0.022899264 0.022217603
000380 27 38 19 bd 66 d4 d4 3c c1 f0 4e bd 49 d7 8d bb
       -0.037407067 0.025980186 -0.05052257 -0.0043286425
000390 a4 c6 d1 3c ce a3 2d bd 11 9b 48 bb 45 9a 1d 3b
       0.025607415 -0.042392544 -0.0030610005 0.002404825
0003a0 4f e4 8e 3b b1 c0 39 3c 2e b2 9d bb 15 22 06 3c
       0.0043607126 0.011337445 -0.0048125004 0.008186837
0003b0 b9 2b 5b bb dc 16 56 bc ec 79 01 bd 66 c3 c4 3c
       -0.0033442809 -0.013066974 -0.031610414 0.024018954
0003c0 ba 57 82 3c ff 80 bf 3b 69 5b 5e bd 1f c4 8d 3c
       0.015910972 0.005844235 -0.054286394 0.017305432
0003d0 23 c4 71 b8 06 66 38 3c 98 a8 32 bd 3c 8f ab 3c
       -5.7641544e-05 0.011254793 -0.043617815 0.020942323
0003e0 fc 49 bd 3c 8c 9e 36 bd cc d0 1a bb 41 ae 5a bc
       0.023106568 -0.044584796 -0.0023622988 -0.013347209
0003f0 3c 87 a5 bb 97 b8 d1 39 40 12 85 3c 48 98 3c bb
       -0.0050515216 0.00040001117 0.016244054 -0.002877729

bias f4 [32]
000000 f5 e0 80 3a b5 64 fe 3a 8e 0c ee 37 1a bc ac bb
       0.0009832667 0.0019408675 2.8377657e-05 -0.005271447
000010 fc 9c b6 bb e2 cc 6d 3b 08 38 8f ba 82 0d da bb
       -0.005572913 0.003628545 -0.0010926733 -0.0066544423
000020 0c 50 fc 39 76 6e 83 3b 10 c5 45 bc b7 d2 a2 39
       0.00048124825 0.0040109707 -0.012070909 0.00031056043
000030 c9 34 a2 3a 69 82 37 3a 2f 98 c8 bb ef 6a 7e 38
       0.001237535 0.00070003286 -0.0061216573 6.065791e-05
000040 c1 40 f8 b9 bc 73 e8 ba 2a 2f 92 bb 0e 49 f5 b8
       -0.00047350492 -0.0017734687 -0.004461189 -0.00011696118
000050 58 d2 07 3b 98 e3 76 bb 93 24 33 bb 69 f7 16 bc
       0.002072474 -0.0037672278 -0.0027335032 -0.009214261
000060 5e 17 bf bb b9 06 87 3a 0d 43 12 39 d3 96 ea bb
       -0.005831643 0.0010301686 0.00013948623 -0.007159093
000070 22 e8 f8 bb 16 b8 9b bb 85 9a 12 bb 69 63 f7 39
       -0.0075960318 -0.0047521694 -0.0022369933 0.00047185578

weight f4 [32, 32]
000000 d8 3c 9c 3d a9 75 9a 3e a4 4a 0e 3e ad ae ad be
       0.076287925 0.30167893 0.1389566 -0.3392233
000010 41 d4 62 3d f5 00 43 be 09 f9 99 be d0 e2 88 3d
       0.055378202 -0.19043334 -0.3007281 0.06683886
000020 31 76 e7 3c db 2e 7d 3d d9 81 87 3e 59 de 0f 3c
       0.0282546 0.061812263 0.26466253 0.008781039
000030 6a b4 43 3e ff 72 2b 3e d5 1f 1e 3d d8 a1 6d be
       0.19111791 0.16743086 0.038604576 -0.2320627
000040 56 94 dd 3c 47 a0 a0 be 18 84 41 3e fb 04 98 bd
       0.027048271 -0.31372282 0.18898046 -0.07422825
000050 ec b1 a2 bd 6e 3e 11 be 08 0f 02 3e 62 38 5f be
       -0.07944092 -0.14183971 0.12701046 -0.21798852
000060 eb 36 64 be 03 28 13 bc 7b a5 4e be c4 d4 a5 be
       -0.22286575 -0.0089817075 -0.20180313 -0.3238889
000070 36 e7 65 be fe 76 30 bd 87 7e 07 bd 89 c9 6b 3e
       -0.22451481 -0.04308223 -0.03307965 0.23026098
000080 c0 f2 5a be e0 64 a2 be 0a 07 d2 3c 67 25 bc bd
       -0.21381664 -0.31717587 0.025638122 -0.091868214
000090 0f 70 0d 3e 13 4c e9 bd 8e ff 44 be fb 3e f9 3c
       0.13812278 -0.11391463 -0.19238111 0.03042554
0000a0 ca 34 5e 3e 1e 9b 90 be eb b9 2a 3c 7b d8 bb bd
       0.21699825 -0.28243345 0.010420303 -0.0917215
0000b0 70 ca db bb fc f1 09 3e 59 44 0c be e0 bb 76 be
       -0.006707482 0.13471216 -0.13697948 -0.24095106
0000c0 bd 3c 9f bd 8a 87 1b be 00 69 8c 3e a7 b2 81 3e
       -0.07775257 -0.15188423 0.2742386 0.25331613
0000d0 b1 f6 8d bc 1c cd 42 3e 56 6f 82 3d da b7 ad bd
       -0.017329546 0.19023556 0.06368892 -0.084823325
0000e0 f5 b2 53 3e 7d 62 8c 3d dc 73 49 be 30 1b a1 3d
       0.20673735 0.06854723 -0.19673103 0.07866514
0000f0 32 1c fc bd 18 5a 09 3e 3c e0 bb bd 7a 01 62 be
       -0.12310065 0.13413274 -0.09173629 -0.22070876
000100 95 d6 81 3e 2f a9 a2 3c db 68 a0 bd 92 f5 60 3e
       0.25359026 0.019856064 -0.078324996 0.21968678
000110 ff 35 9b be 6a 48 84 3e 71 46 6d 3e 4d 48 22 be
       -0.30314633 0.25836498 0.23171403 -0.15847893
000120 aa d9 9e be dc 7e ee bb 5c 01 88 be 0c cf 97 be
       -0.3102544 -0.0072783064 -0.26563537 -0.29650152
000130 31 00 30 bd e7 26 76 bd c2 44 0c be 2b f3 78 3d
       -0.042968933 -0.060095694 -0.13698104 0.060778778
000140 42 01 47 3d e5 f5 a0 be e5 8a b1 bc f9 2f 81 3e
       0.048585184 -0.31437603 -0.021672675 0.25231913
000150 b0 30 2a 3d 6e 15 67 3e 8b 48 7c be bd 65 21 be
       0.04155034 0.22566769 -0.24637048 -0.15761466
000160 a6 db 75 3e 79 b0 36 be ad 34 53 3e 1d 7f a4 3d
       0.2400957 -0.17840756 0.20625563 0.080320574
000170 ea 4e 2b be 53 52 9b bd d9 66 22 3e e0 62 33 be
       -0.16729322 -0.075840615 0.15859546 -0.17518187
000180 29 d2 87 3e 08 ad de bd 01 d5 f7 3d 79 35 4a 3e
       0.26527527 -0.10872847 0.12101174 0.1974696
000190 7b 06 ad 3d f0 4e 06 3e 00 e1 06 3d 4c d4 fb bb
       0.08448502 0.1311605 0.03292942 -0.00768522
0001a0 35 99 a8 be ce 5d 74 be a3 92 37 3d 87 72 04 3e
       -0.32929388 -0.23863909 0.044817578 0.12934314
0001b0 c5 64 98 3e 92 cf d8 3d d0 4a b1 3d f0 15 04 be
       0.2976438 0.10586466 0.086568475 -0.12898993
0001c0 72 6e 85 3e 9e 89 77 be 1b 00 65 be 33 68 a4 be
       0.26060826 -0.2417359 -0.22363321 -0.32110748
0001d0 92 a1 3f bd 80 57 43 bd 16 90 75 3e a5 6b 00 3c
       -0.046784945 -0.04769087 0.23980746 0.007838164
0001e0 5f 1e 10 3e dd 21 54 3e 4c 29 98 3e 46 29 0c 3e
       0.14074086 0.20716043 0.29719007 0.1368762
0001f0 93 ff 1d 3d 66 4d 3e be fd e7 89 3d e4 71 9a 3d
       0.038573813 -0.18584213 0.067337014 0.07541254
000200 f0 d7 3f 3e ee f5 90 3d a5 45 34 bd 6d f7 c6 3c
       0.18734717 0.07078157 -0.04401173 0.024287904
000210 ac df 19 3e 81 d7 18 be 14 3b 7a bc aa 84 3d 3d
       0.1502673 -0.14925958 -0.015272874 0.046269096
000220 68 ae 79 3e ae 4f 44 3e cb ae 51 3e f5 da ad 3d
       0.24382937 0.1917102 0.20476834 0.08489028
000230 55 c0 de bd 3e 96 b1 3e 92 e6 25 3e b4 69 4e be
       -0.10876528 0.34684938 0.16201237 -0.2015751
000240 59 33 6c be c8 6e 02 bd eb c9 6f be 45 36 28 be
       -0.23066463 -0.03184393 -0.2341687 -0.16426952
000250 09 33 8c be 8c ea d2 bd d0 4d 97 3e 81 f1 06 bd
       -0.27382687 -0.102986425 0.29551554 -0.03294516
000260 ba 3a d4 bc 1d cf 55 bd dd e0 84 be 3b 3f cf 3d
       -0.02590691 -0.05219947 -0.25952807 0.10119482
000270 49 0e 29 3e 27 63 96 be 36 9a 63 3e 75 84 1f 3e
       0.16509356 -0.29372522 0.22226796 0.15577872
000280 6d e6 58 be f4 e1 20 bd 28 17 22 be 80 1b a3 3d
       -0.2118165 -0.039277986 -0.15829146 0.079642296
000290 de e7 0a bc 07 6b 4d 3d d4 3d 92 be 63 a8 81 3e
       -0.008478133 0.050150897 -0.28562796 0.2532378
0002a0 42 22 22 be 11 87 68 be 1c b6 9f be f9 ff 30 bd
       -0.15833381 -0.22707774 -0.31193626 -0.043212865
0002b0 02 35 91 be 8a ca 81 be 7a 82 5c be 25 2a 76 be
       -0.28360754 -0.25349838 -0.21534148 -0.24039514
0002c0 4c c6 84 be 5f 35 ab 3b 9f 1a 82 3e 38 50 d7 bd
       -0.25932539 0.005224868 0.25410935 -0.105133474
0002d0 5b 50 91 3e 9c 36 bc 3d 90 ab 5c 3e 58 f5 75 be
       0.2838162 0.091901034 0.21549821 -0.24019372
0002e0 55 67 de 3d d4 f1 b0 3b 85 f8 f1 3d 6e 24 a1 bd
       0.10859553 0.005399922 0.118149795 -0.078682765
0002f0 3d 67 3d be 5a 83 28 3e 18 1d 5d 3e ef af fc bd
       -0.18496414 0.16456357 0.2159313 -0.12338244
000300 47 b6 62 3e 27 62 68 3e 37 37 1a bd 08 9a e5 bc
       0.22139846 0.22693692 -0.037650313 -0.02802755
000310 e5 22 96 be 9c 7d c5 3d c1 fc 8c be 6f 07 8e 3d
       -0.29323497 0.09643099 -0.27536586 0.069350116
000320 ed 84 75 3e 4b 9b 0b bd cb 63 0d be d6 7e bc 3d
       0.23976488 -0.034083646 -0.13807599 0.092038795
000330 2c 99 8c 3e b6 10 32 3e d1 7d 73 be 30 0e 98 3d
       0.2746061 0.17389187 -0.23778464 0.07424581
000340 6e 59 4c be 21 40 99 bd e4 c4 41 be e7 0f 8f be
       -0.1995599 -0.07482935 -0.18922764 -0.2794182
000350 8c dc 81 3c e7 48 96 be 9c 2c 5f be 45 be 90 be
       0.015852235 -0.29352495 -0.21794361 -0.28270164
000360 e8 65 3c 3e 09 8c 96 be 55 13 a3 3a d2 88 b1 3d
       0.18398249 -0.29403713 0.0012441674 0.086686745
000370 aa 7d 82 3e 1c 0b 12 3e a3 ab ce bd b2 8d 35 be
       0.254865 0.1426205 -0.10091331 -0.17729834
000380 1e 17 fe bd 00 29 84 be 2e c8 9e be a4 e0 e4 3d
       -0.12406753 -0.2581253 -0.310121 0.11175659
000390 04 c3 f6 3d 08 2b 64 3e 8f 5c 61 3e f4 be 15 3e
       0.12048915 0.2228204 0.22007965 0.14623624
0003a0 f8 34 ee 3d c0 8b 40 bd 72 e8 cb 3d cc 65 63 3e
       0.11631197 -0.047008276 0.09956445 0.22206801
0003b0 a9 fd 4f 3e aa 45 85 3e 0e 53 e6 3d 89 bf 8a be
       0.20311607 0.26029712 0.1124631 -0.27099255
0003c0 6a 57 b8 bc 72 94 85 3e 25 d9 ec 3d ea c7 79 3e
       -0.02250262 0.26089817 0.115648545 0.24392667
0003d0 98 55 3d 3e 2d ea c1 3c c8 11 68 3e 28 a1 15 be
       0.18489683 0.023671234 0.22663033 -0.14612257
0003e0 30 f6 70 be ab 3f 7e 3d 68 25 5e be d3 a9 3c 3e
       -0.23531413 0.062072437 -0.21693957 0.18424158
0003f0 0b 86 92 3e aa 79 a9 be 28 95 64 3e 3e 08 5e be
       0.28617892 -0.33100635 0.22322524 -0.21682832

bias f4 [64]
000000 09 75 80 bb c5 cd 88 bc 64 f6 ed bc 3d 3a ee 3b
       -0.0039202017 -0.016699681 -0.029048152 0.007270126
000010 3d d7 19 3b 2a c8 04 bd 79 c5 36 3c db f4 13 bd
       0.002347424 -0.032417454 0.01115548 -0.036122184
000020 b4 2d 2a 3c 54 25 71 3d b9 32 86 bd e2 44 96 3c
       0.010386873 0.05887349 -0.06552643 0.018343393
000030 50 05 d4 ba 2e 38 24 bc 89 f1 87 3d df 11 c1 bc
       -0.00161759 -0.01002316 0.06637866 -0.023568092
000040 0a 48 86 3d 2e 2e a0 3d 4b 0e 43 bd 66 94 93 3c
       0.06556709 0.07821308 -0.047621053 0.018015098
000050 a7 db 16 bd 9c 9c 47 3c 5a ff 72 3d 44 ce c4 bc
       -0.03683057 0.012183335 0.059325553 -0.024024136
000060 4d 7a 86 bd 37 c3 a1 bd be dd 13 3d 5b d2 d0 bc
       -0.06566296 -0.078985624 0.03610014 -0.02549093
000070 90 ce fd 3c 1c 55 29 bd 82 f3 38 bc 05 54 66 3c
       0.030982286 -0.041340932 -0.011288526 0.014058118
000080 fd 01 7f bc 22 16 8e 3c f7 d8 0f bc 19 61 30 bd
       -0.015564439 0.017344538 -0.008779756 -0.04306135
000090 e8 0a 3a 3d 7c bd cb 3c e3 5c 8c bd 8c ff b9 3c
       0.045420557 0.024870627 -0.06853654 0.022704862
0000a0 cb 52 4e 3a eb 13 a0 3a 3d 87 48 3d a4 c8 4b 3d
       0.00078706135 0.0012212967 0.0489571 0.049751893
0000b0 c6 7e 5e 3d de cf 42 bd 78 8e c3 bc 79 7e a0 3c
       0.05432012 -0.04756152 -0.023871645 0.019591557
0000c0 79 f6 79 3d 06 84 dc bc 56 7a ae 3c d2 52 0f 3d
       0.06102607 -0.026918422 0.021298569 0.034991093
0000d0 c1 39 ac 3d 4b 11 88 3d 2d 73 bf bc cd ba 3e 3c
       0.08409453 0.06643923 -0.02337035 0.011641216
0000e0 ff 56 90 bd ab 8b 69 3b b0 d1 0e bd 5c f3 a2 3c
       -0.07047843 0.0035636227 -0.034867942 0.019891433
0000f0 d6 02 91 bd bd 39 4e 3c 0c fd 81 3d 67 c0 1d 3a
       -0.07080619 0.012587008 0.06347093 0.0006017745

weight f4 [64, 32]
000000 ad a6 42 3e 08 61 74 be f0 47 09 3e 96 cc 42 3e
       0.19008894 -0.2386514 0.13406348 0.19023356
000010 4c ee 0c 3e 5a d9 1a 3d 26 c2 b1 bd 8c 47 b0 3c
       0.13762778 0.03780494 -0.08679609 0.021518491
000020 93 19 8f bd e0 80 60 3e 3b c3 87 bd 55 e6 ca 3d
       -0.069873 0.21924162 -0.06629034 0.099072136
000030 de ae b2 3d a5 a4 4e be 5c f3 d2 3d c9 49 d5 bc
       0.087247595 -0.20179994 0.10300323 -0.02603616
000040 b9 81 5a be bb eb a5 3d 59 74 40 3e 4c 63 f2 bd
       -0.21338548 0.08101603 0.18794383 -0.118353456
000050 22 14 23 3d f3 7d 53 3d 43 d1 c0 3d 1f e9 12 be
       0.039814122 0.051633786 0.094149135 -0.14346741
000060 6d 3a f1 3d d9 94 b6 bd e7 c7 cf bd 22 ca 6c be
       0.11778722 -0.08915109 -0.1014555 -0.23123983
000070 95 22 e7 3d af db c7 3d 39 6b 9c 3d 1e 2d 03 3d
       0.11285893 0.09758698 0.076376386 0.03202545
000080 9c f4 1d 3e c9 09 4a be 41 52 51 3e 42 99 a2 bd
       0.15425342 -0.19730295 0.20441534 -0.07939388
000090 83 12 ae bd c4 b0 17 3e bd bc 3f 3e 76 2d d0 3d
       -0.084996246 0.14813524 0.18724342 0.10164921
0000a0 77 f6 d5 3d 23 2c 52 bd a5 40 b0 bd cb b6 a8 3d
       0.104474 -0.051311623 -0.0860608 0.0823799
0000b0 f0 29 ae bd 50 de ba bd 36 21 25 be 5a 08 de 3d
       -0.08504093 -0.09124434 -0.1612595 0.10841437
0000c0 bf b9 b9 bd db 18 4d 3e 16 80 c9 bd 92 64 08 3e
       -0.090686314 0.20029013 -0.098388836 0.13319615
0000d0 f0 0a cf 3c 09 02 2e be 01 93 d6 bb f0 85 11 be
       0.02527377 -0.16992964 -0.006548286 -0.1421125
0000e0 5d 5d 8f bd aa d6 32 be f1 75 54 be 56 9a 78 bc
       -0.070002295 -0.174647 -0.20748116 -0.015173515
0000f0 96 17 17 3d 24 ca 45 3e 76 16 33 be 0d d4 1b 3e
       0.036887728 0.19315392 -0.17489037 0.1521761
000100 85 6e 28 be c0 51 58 be 21 29 b6 bd b4 e1 90 3d
       -0.1644841 -0.21124935 -0.088945635 0.070742995
000110 3e 3d eb bd 84 bd 49 3c 65 9b 48 3e ae c9 77 3d
       -0.114862904 0.01231325 0.19590528 0.06049507
000120 84 2d fb bd 41 a6 23 be 41 c8 2b be 84 6c 3f 3e
       -0.12264541 -0.1598139 -0.1677561 0.18693739
000130 13 2a c7 3d 8b 20 45 3e 45 87 1a bd 9b 33 12 bb
       0.09724822 0.19250695 -0.03772666 -0.0022308591
000140 af 13 06 3e 4e 1d 3a be f4 19 4d 3d 85 3d 4a 3e
       0.13093446 -0.18175241 0.05007358 0.1975003
000150 b8 8b e3 bd bb 25 dd 3d 21 40 9f 3d 69 4a e7 bd
       -0.111106336 0.10798212 0.077759035 -0.112934895
000160 01 bd 60 3e bb af 44 3e cd d3 67 bd f3 eb f2 bc
       0.219471 0.19207661 -0.056598473 -0.029653525
000170 0e 61 08 be dc 8a 05 bd b3 7c 97 bc c5 e5 be bc
       -0.13318273 -0.03260313 -0.018492078 -0.023302922
000180 d4 e3 05 be e2 3c 62 be 7e e4 01 3e 76 3b 28 3d
       -0.13075191 -0.22093537 0.12684819 0.04107233
000190 05 98 1e 3e 6c 38 13 3d ea fd 1c be 2c 5e db 3d
       0.15487678 0.03594248 -0.15331236 0.10711321
0001a0 3c 39 ca bb 47 e4 99 bc 88 dc 38 be 99 dd a2 bd
       -0.0061713737 -0.018785609 -0.18052876 -0.07952423
0001b0 58 b9 39 3e 1f b7 1f be 57 b4 56 3e d6 a1 47 be
       0.1813711 -0.15597199 0.20967232 -0.1949533
0001c0 2e 9d 2b 3d a1 58 05 3e 6d 58 47 be 49 ab e7 bd
       0.041897945 0.1302209 -0.19467326 -0.11311967
0001d0 96 81 b5 bd b2 b2 ca 3d b3 c6 a7 bd cc 9e 8a bc
       -0.08862607 0.09897365 -0.08192196 -0.016921423
0001e0 18 ba 07 be c0 b6 0a 3e 7a ea 54 bd b3 7f 36 3e
       -0.13254583 0.13546276 -0.051981427 0.17822151
0001f0 81 1a f7 bd e5 53 6b be 37 47 22 3e 8d ee c4 3d
       -0.12065602 -0.22981222 0.15847479 0.096158125
000200 25 21 88 3d e1 1b 91 bd 25 1d 0a be 0b ae 83 bc
       0.06646947 -0.070853956 -0.1348768 -0.016074201
000210 87 be b9 bb 44 95 18 3e d5 f3 59 3e 05 cf 0c 3e
       -0.0056684646 0.1490069 0.21284421 0.13750847
000220 c3 98 b9 3d fe e4 38 be bc 7b 3d 3e 73 b5 76 3d
       0.0906234 -0.18056104 0.18504232 0.060231637
000230 76 c2 f5 bd 19 51 cf bb ed ee 63 be 7c c3 61 3d
       -0.11999981 -0.0063268063 -0.22259112 0.05511807
000240 7b 53 96 bd d7 63 ee 3d ce 9d ea bd 89 7f 4c be
       -0.073401414 0.11640137 -0.1145588 -0.19970526
000250 c9 cc 21 3e 4f 18 f1 bb 65 0c 82 3b 71 fb 8a bd
       0.15800776 -0.007357634 0.0039687627 -0.0678624
000260 6d 20 1b bd 8b e3 46 3e fd cc 04 be 68 d1 36 3e
       -0.03787272 0.19422738 -0.12968822 0.1785332
000270 fa 1e 17 be e1 1b 22 3d 66 72 a2 3d ae b0 b9 bd
       -0.1475791 0.03957737 0.07931976 -0.09066902
000280 d9 2a 5e 3d 6b c8 2a be 5b 24 7f be 20 f4 6e 3c
       0.05424008 -0.16678016 -0.24916212 0.014584571
000290 90 48 16 3e 08 cf 17 3e a7 cf 00 be e9 de 2b be
       0.14676118 0.1482507 -0.12579213 -0.16784252
0002a0 7d 59 dc 3d 28 f4 21 3e b4 cf dc 3d 45 41 20 bd
       0.10759256 0.15815794 0.10781804 -0.039124746
0002b0 ff e8 87 3d e4 1a 67 bd c1 58 1c 3e 8b c7 22 be
       0.06636237 -0.05642213 0.15268232 -0.15896432
0002c0 a5 ee 52 3e 98 1b 80 be 44 da 5b bd d0 51 20 3e
       0.20598848 -0.25021052 -0.05367495 0.15656209
0002d0 0f 6b 43 3d 7f 82 32 bd 10 6a 3b 3c 9d 55 46 3e
       0.04770952 -0.043581482 0.0114388615 0.19368596
0002e0 4c 59 4a be a2 ec c9 bd a7 4c ee 3d 56 bd b6 3d
       -0.19760627 -0.09859587 0.11635714 0.08922832
0002f0 0b 5c c4 3c 05 5b e5 3c ba 1b f2 3d 9a 2d 0c be
       0.02396967 0.027997503 0.11821695 -0.1368927
000300 79 da db bc ee 39 06 be b6 0b 94 3d 19 86 db bd
       -0.026837574 -0.13108036 0.07228796 -0.107189365
000310 47 bb 98 bd 0e a9 23 3c 72 14 2b be e0 71 3a be
       -0.07457595 0.009989036 -0.16707018 -0.18207502
000320 88 8d 94 3c 16 1a 91 3c 84 63 c8 3d 44 9f 48 bc
       0.018133894 0.017712634 0.09784606 -0.012245003
000330 cd 68 42 be 32 c4 b2 3c d2 9c 0f 3e f9 a0 01 be
       -0.18985291 0.021822069 0.14024666 -0.12659062
000340 84 a2 36 3c a9 68 5a 3b ef 50 fa bd da 16 28 3e
       0.011147145 0.0033326542 -0.12222468 0.16414967
000350 87 25 4a bd 47 82 24 be eb 9b 15 3e 45 eb 3f 3e
       -0.049352195 -0.16065322 0.14610259 0.18742092
000360 c1 f9 6d 3e 7f 3a 36 be c9 45 74 3e 85 ec af 3d
       0.23239805 -0.17795752 0.23854746 0.085900344
000370 d2 3a 44 3e d0 98 38 3e 14 91 88 3d 8b 84 05 be
       0.19163063 0.18027043 0.066682965 -0.13038842
000380 a4 3e 3c 3d 0c 36 18 3e e2 f3 6e bd 2b 2e 18 3e
       0.045958176 0.14864367 -0.058338054 0.14861362
000390 f1 8f 82 be 9f 44 ed bd fd 09 3c 3d 78 b9 15 3e
       -0.25500444 -0.11585354 0.045907963 0.14621532
0003a0 32 bd 2e 3d 66 19 8a 3d 15 6b 62 bd fd 1b 20 bc
       0.0426609 0.067431256 -0.055277903 -0.009772298
0003b0 1d e7 ea 3d 12 d0 72 be 39 00 aa bd 5b 4a dd 3a
       0.114698626 -0.23712185 -0.08300824 0.0016883122
0003c0 46 7f 02 3d 7b 6d 16 3d 21 63 65 be 22 ed 7c 3d
       0.03185966 0.036725502 -0.22401096 0.061749585
0003d0 4e 5f 21 be 56 b2 23 be 5c 4f 42 3e 9e 47 34 be
       -0.15759012 -0.15985999 0.18975586 -0.17605445
0003e0 a6 f4 15 3e 08 46 67 3d 35 8a 4f 3e 88 bd 77 3d
       0.14644107 0.05646327 0.20267566 0.060483485
0003f0 3f 4b 3a 3c a4 1e 34 3e d3 8d aa 39 73 0e 3e be
       0.011370479 0.17589813 0.00032530594 -0.185602

weight f4 [32]
000000 18 33 76 3f 8e 60 7b 3f 45 5a 76 3f d3 b7 77 3f
       0.9617171 0.98194206 0.9623149 0.9676487
000010 c8 b0 74 3f c4 ed 75 3f 73 a5 76 3f 9d 01 78 3f
       0.95582247 0.96065927 0.96346205 0.9687746
000020 50 bc 7e 3f 7f 9c 72 3f a7 92 77 3f c5 7c 72 3f
       0.9950609 0.94770044 0.9670815 0.94721633
000030 bd 4c 7d 3f b4 52 80 3f 39 b8 71 3f 84 ec 79 3f
       0.9894522 1.0025239 0.94421726 0.9762652
000040 d0 cc 74 3f 18 02 7a 3f bf 3f 7a 3f 7f 77 80 3f
       0.9562502 0.97659445 0.9775352 1.0036467
000050 b4 33 77 3f a4 68 77 3f 3f f1 79 3f c1 69 76 3f
       0.9656327 0.96644044 0.9763374 0.9625512
000060 8f 2c 7b 3f ea 15 78 3f 25 99 78 3f 0a 8d 7b 3f
       0.98114866 0.9690844 0.9710868 0.98262084
000070 ce 51 78 3f 40 ec 75 3f 47 8b 7c 3f ad a4 7d 3f
       0.96999824 0.96063614 0.9865002 0.990794

bias f4 [32]
000000 00 9b 4b bd 0d 25 53 bd 7a be 53 bd 25 aa 3d bd
       -0.049708366 -0.051549006 -0.051695324 -0.04630484
000010 91 ad 75 bd 9d 79 48 bd f3 9d 1c bd 9c 88 46 bd
       -0.05997998 -0.048944104 -0.03823657 -0.048470125
000020 50 40 10 bd 28 cd 7c bd 66 65 6d bd 99 ac 6a bd
       -0.035217583 -0.06171909 -0.05795803 -0.05729351
000030 fe a7 21 bd 73 95 f9 bc 58 ff 85 bd 1c ab 27 bd
       -0.03946685 -0.03046677 -0.065428436 -0.040934667
000040 1a 02 42 bd 32 4a 29 bd 62 04 51 bd 65 89 56 bc
       -0.047365285 -0.041330524 -0.05102957 -0.013094281
000050 85 5e 51 bd 01 71 55 bd 81 46 17 bd 82 15 50 bd
       -0.05111553 -0.052109722 -0.036932472 -0.05080176
000060 6a 60 e5 bc 75 6c 30 bd a1 e1 41 bd 06 d4 22 bd
       -0.028000075 -0.043072183 -0.047334317 -0.039752983
000070 5d 7e 37 bd 0e b4 59 bd 1e 48 0f bd 78 2d cd bc
       -0.044798244 -0.05315023 -0.034980886 -0.025046095

running_mean f4 [32]
000000 eb 64 a3 3b a1 bf 62 bc b2 ef a3 bb 04 aa 07 3c
       0.0049863956 -0.013839633 -0.005002939 0.008280281
000010 ea ea 30 bc 55 4e 58 bb 6d 37 d4 bb 01 a4 4f 3b
       -0.010798195 -0.0033005674 -0.006476334 0.0031683447
000020 68 be 06 3c a9 e3 e1 bb 7a 78 8a b8 15 8b 2a bc
       0.008224107 -0.0068935943 -6.602793e-05 -0.010409136
000030 ac ae a2 ba 6a df f0 bb 73 a5 1c bc 30 fb ba bb
       -0.0012411675 -0.007350852 -0.009560931 -0.0057062134
000040 11 29 8e bb 81 a9 46 3a 30 e0 4b bc 17 4e bb bb
       -0.0043383916 0.00075783586 -0.012443587 -0.005716096
000050 27 b0 7d bb a9 40 44 bc a4 28 ff 3b e9 57 04 ba
       -0.0038709731 -0.011978307 0.007786827 -0.00050485
000060 ee 91 15 bc 0d 8e 79 bc 87 a0 2b 3b bd 36 d5 bb
       -0.009129031 -0.015231621 0.002618821 -0.0065067695
000070 14 73 bc bb 2f 79 57 bc 7d 9a 15 bb 15 ef d1 3a
       -0.005751023 -0.013151451 -0.0022827678 0.0016016687

running_var f4 [32]
000000 cb 33 f2 39 bf e5 a5 39 ac 9d 01 3a 91 0f f5 39
       0.00046196426 0.00031642427 0.00049444544 0.0004674164
000010 a5 52 14 3a de d6 02 3a 03 1e e1 39 af cd cd 39
       0.0005658067 0.0004991124 0.00042937705 0.00039253893
000020 18 3a a5 39 45 62 24 3a d6 30 e8 39 ba 17 25 3a
       0.00031514536 0.0006270747 0.00044286874 0.0006297786
000030 0e 79 94 39 19 f2 9d 39 1e e0 36 3a fc f1 d6 39
       0.00028318953 0.0003012575 0.0006976145 0.00040997553
000040 91 12 00 3a 84 69 a7 39 e8 f3 bf 39 0e fa a0 39
       0.0004885579 0.00031931337 0.00036612083 0.00030703883
000050 6a e2 ea 39 60 d8 e6 39 fa f0 bb 39 0b 07 e9 39
       0.0004480065 0.0004403023 0.0003584696 0.0004444647
000060 d1 4a c1 39 18 97 c8 39 df 9d e3 39 a9 b6 bc 39
       0.0003686757 0.00038259546 0.00043414437 0.00035994247
000070 98 c3 f9 39 fe f6 0a 3a e6 cc bf 39 a1 66 ac 39
       0.0004763871 0.0005301087 0.0003658302 0.0003288286

weight f4 [32]
000000 fb 55 6c 3f e2 9f 6b 3f a0 eb 6c 3f 07 15 6f 3f
       0.92318696 0.92040837 0.92547035 0.9339146
000010 74 9e 6f 3f 1b 79 6c 3f 66 c6 6c 3f e6 14 6c 3f
       0.93601155 0.9237229 0.9249023 0.9221939
000020 89 fa 6e 3f a2 b8 6b 3f 96 02 71 3f 0d 30 6c 3f
       0.93351036 0.920786 0.9414457 0.9226082
000030 da 4f 6b 3f 2f 8a 69 3f 03 e1 6e 3f 94 3c 6f 3f
       0.9191872 0.91226476 0.9331209 0.9345181
000040 aa 20 6d 3f c2 02 6a 3f 87 a2 70 3f c6 05 6c 3f
       0.92627966 0.9141046 0.93998 0.9219631
000050 ac 9e 69 3f d2 df 6f 3f f4 50 6e 3f 2e 41 6b 3f
       0.9125774 0.937009 0.93092275 0.9189633
000060 4d a9 6d 3f 2d e7 6d 3f e8 78 6a 3f ce ef 6d 3f
       0.9283646 0.9293087 0.9159074 0.9294404
000070 66 ee 72 3f 99 5e 6e 3f bb 3f 6a 3f 37 93 69 3f
       0.9489502 0.93113095 0.91503495 0.9124026

bias f4 [32]
000000 9d 89 66 bd 59 2e 92 bd 23 11 99 bd 7e 7f 71 bd
       -0.056283582 -0.07137746 -0.07473972 -0.058959477
000010 91 6c 80 bd b3 c0 55 bd 69 05 5c bd 22 61 8b bd
       -0.062707074 -0.052185725 -0.053716097 -0.06805636
000020 cf fa 8f bd 1b 20 5f bd de 20 4d bd 14 c9 9a bd
       -0.0703026 -0.054473978 -0.050080173 -0.07557884
000030 84 71 9a bd 84 ea b0 bd ba 6b 8e bd e2 83 8e bd
       -0.07541183 -0.0863848 -0.06954141 -0.069587484
000040 55 3c 95 bd 26 e5 a4 bd 06 7c 7d bd 71 9f 50 bd
       -0.07286898 -0.08051519 -0.061885856 -0.050933305
000050 15 17 a7 bd 69 44 78 bd 30 80 87 bd 38 e8 93 bd
       -0.081586994 -0.060612116 -0.06616247 -0.072220266
000060 9e c8 82 bd 06 4d 65 bd e2 f9 ac bd 0b 34 80 bd
       -0.06385921 -0.05598166 -0.08446099 -0.062599264
000070 43 5b 48 bd 38 0a 81 bd 49 9e 99 bd 37 43 a8 bd
       -0.04891516 -0.06300777 -0.075008936 -0.08215945

running_mean f4 [32]
000000 bf db ab be 1e 13 89 be fc a1 64 be 45 f4 b9 3e
       -0.3356609 -0.26772398 -0.22327417 0.36319175
000010 61 98 21 3e 35 f3 09 bf 55 7f a8 be 4e 0a 02 3f
       0.15780784 -0.5388673 -0.32909647 0.50796974
000020 6a 6b 76 be fc 83 0d bf e2 b2 fb 3e 8e 23 88 be
       -0.24064413 -0.5527952 0.49159914 -0.26589626
000030 33 a1 8e be ce c6 74 be 28 0b 5e 3d b9 30 7f be
       -0.2785736 -0.23903963 0.05420986 -0.2492093
000040 b9 ee 48 be 7d 2e 98 bd eb e2 d1 3d 0c a9 c1 be
       -0.19622315 -0.07430742 0.10248359 -0.37824285
000050 3c cd 97 be 7f e8 0f 3e d7 d6 62 bd 48 a5 eb 3e
       -0.2964877 0.14053534 -0.05538067 0.46024537
000060 08 58 99 3e 30 30 bb be d4 24 c0 be 18 c6 f7 3e
       0.29949975 -0.36560202 -0.37528098 0.4839332
000070 2d 00 77 3e db c2 51 3e 98 71 bb bc 5c f1 bd be
       0.24121161 0.20484488 -0.022881314 -0.37098205

running_var f4 [32]
000000 e2 4e 03 3f ea ef d2 3e 3b b0 13 3f f1 b6 09 3f
       0.5129224 0.41198665 0.5769078 0.5379477
000010 b8 92 03 3f cf 59 0b 3f 9e e7 10 3f e7 a1 2a 3f
       0.5139575 0.5443391 0.5660342 0.66653293
000020 4a 70 02 3f e7 44 5a 3f 16 1c ee 3e 87 44 d3 3e
       0.5095259 0.85261387 0.46505803 0.4126322
000030 3d 5d 07 3f 6d 44 16 3f a3 b9 0c 3f 07 e3 08 3f
       0.52876645 0.5869816 0.5497076 0.53471416
000040 67 e9 d2 3e e1 51 d3 3e 1b 24 e2 3e 36 8f 14 3f
       0.41193697 0.41273406 0.4416817 0.5803102
000050 3a 71 00 3f f6 7e da 3e 85 e6 d3 3e a1 cd cf 3e
       0.5017277 0.42674989 0.4138681 0.4058657
000060 2a b9 05 3f c3 26 06 3f e9 32 16 3f 6f 5a 0d 3f
       0.5223566 0.52402896 0.5867143 0.55216116
000070 d4 49 e7 3e aa d1 d8 3e 7e 79 0a 3f 23 69 1b 3f
       0.45173514 0.4234746 0.5409163 0.607073

weight f4 [64, 64]
000000 3f 80 c2 bd 8a 6f 85 bc cc c5 57 3d fb c2 96 3c
       -0.09497117 -0.016288538 0.05267887 0.01840352
000010 03 1f 30 bd a6 8e 67 3d 4f ef cc 3b 34 bf a9 3d
       -0.042998325 0.056532525 0.0062541137 0.08288422
000020 1b 1f d7 bd 10 33 51 bd 39 f6 26 bd fb ba 20 3c
       -0.1050398 -0.051074088 -0.04076216 0.009810205
000030 db 3d 9f 3d fb 51 75 bd df 06 3a 3d 74 cb 0a be
       0.0777547 -0.059892636 0.04541671 -0.13554174
000040 08 ad 97 3d 51 c3 ee 3b 2c 69 a8 3d 72 56 a4 3d
       0.0740605 0.007286467 0.08223185 0.08024301
000050 e6 c0 8e 3d 64 95 17 bd e6 17 62 bd b4 e5 b0 3c
       0.06970386 -0.037007704 -0.055198573 0.021593906
000060 03 69 97 bd ee 28 97 bd 3b 83 c1 3b 31 86 e9 bd
       -0.07393076 -0.073808536 0.0059055365 -0.11402548
000070 e3 f9 f7 3d 83 50 00 3e 93 a5 95 3d 17 fe 68 3d
       0.12108209 0.12530713 0.073069714 0.056882944
000080 39 fb 94 3d e2 f4 9b bc ad c9 a2 3c 54 b7 6c bd
       0.072744794 -0.019037668 0.019871557 -0.057792023
000090 9b d1 ea 3d be 26 dc bd 0c 55 30 3b be 47 80 bd
       0.1146576 -0.10749577 0.002690616 -0.06263684
0000a0 6d c4 1b 3d 37 b7 4b 3d 39 1a ad bd 69 13 9e 3d
       0.038029123 0.049735274 -0.08452267 0.07718546
0000b0 5b 81 c9 3d e0 05 bb bd 11 93 03 be c7 11 89 bb
       0.09839126 -0.0913198 -0.1284907 -0.0041830274
0000c0 23 6a 41 bd 32 4f cb bd 95 30 c6 bc 71 20 76 3d
       -0.04722036 -0.09927215 -0.024193088 0.060089532
0000d0 9c 8d b8 bd 8b 7d ad bd ff 98 5e bc 69 28 d4 3d
       -0.09011385 -0.08471211 -0.013586282 0.1035927
0000e0 b9 99 38 bd 69 c6 3a 3d 27 85 eb bd 6c ba 53 3d
       -0.045068476 0.045599375 -0.11500006 0.051691458
0000f0 b6 85 65 3d 1f 9d b9 bc 8a 92 d4 3d e5 2f 72 bd
       0.05603572 -0.022657929 0.103795126 -0.059127707
000100 ab 62 a5 bd 06 94 39 3d 1c 3f 98 bb d3 9c b2 3d
       -0.0807546 0.04530718 -0.004646195 0.08721318
000110 c1 ae d3 bc 5f 1a 64 3d ee f2 10 3e bf 8c 4b bd
       -0.025840165 0.055689212 0.1415517 -0.049694773
000120 77 0e 94 3c 5c ad cb 3c 03 49 df bd a0 63 f8 3d
       0.018073304 0.024862938 -0.10902598 0.12128377
000130 8e 57 c1 3c 85 32 c7 3d 86 7b 86 3d 4b 26 cf bd
       0.02360132 0.09726433 0.06566529 -0.10114726
000140 66 67 0e 3c 4a c3 25 3e ee f9 02 3d b4 29 cb 3d
       0.008691644 0.16187778 0.031976633 0.099200636
000150 b2 99 db 3d ed b1 6c 3c 40 93 83 3d dc 02 20 3e
       0.107226744 0.014446718 0.0642457 0.15626091
000160 70 c7 f3 3d 4f 58 44 bd ae 01 70 3d fc a5 32 3b
       0.11903274 -0.04793578 0.058595352 0.002725958
000170 f6 04 0b 3d de 37 8f bb 35 dc 0b 3d 92 b9 12 bd
       0.033940278 -0.0043706736 0.034145553 -0.035821505
000180 8a a2 64 bd 77 c0 e2 bd b6 f3 1b 3d 89 2d fb bd
       -0.05581907 -0.11071866 0.038074218 -0.122645445
000190 66 09 f1 bb 87 e0 c1 bd 16 c2 3d 3d 45 95 f5 bd
       -0.0073558567 -0.09466653 0.046327673 -0.119913615
0001a0 ad e9 b0 bd 48 97 28 3d e7 0e ad 3d e6 87 9f 3c
       -0.0863832 0.041159898 0.08450108 0.019473981
0001b0 a7 ef be 3d a7 ab 01 be 36 0c 79 3d 41 c6 d7 3c
       0.09323054 -0.12663136 0.06080266 0.026339652
0001c0 f5 a9 ad bd 6f 25 d8 bd f4 99 19 bc 79 7b 1e 3b
       -0.08479682 -0.10554015 -0.009375084 0.0024182482
0001d0 13 33 c5 bd e2 2d b8 3d 0d 46 8e bd fc 81 e9 bd
       -0.09628882 0.089931265 -0.06946955 -0.11401746
0001e0 f1 1d fb bb 1c 65 30 3e f1 a4 88 bd 3c 47 34 bd
       -0.0076634814 0.1722607 -0.06672085 -0.044013247
0001f0 35 46 16 3e 1b 65 dc bd 12 1e 1f 3d ef dd c0 bc
       0.1467522 -0.10761472 0.038847037 -0.023543326
000200 cd 46 54 3d 9e c1 e8 3c 6c 81 2f 3c ad 1b a1 3d
       0.051825333 0.028412636 0.010712009 0.07866607
000210 b1 f1 74 3d 01 d3 03 be f7 b8 98 3b dd a7 b5 3c
       0.059800807 -0.1287346 0.0046607214 0.02217477
000220 6e a4 66 3d e4 ec e9 bc 4c e8 1b 3c 69 88 e7 3d
       0.056309156 -0.028555341 0.009515833 0.11305315
000230 02 69 f1 bc 13 25 df bd a4 bf a5 bd d1 a4 e4 bd
       -0.029469017 -0.10895743 -0.08093193 -0.11164249
000240 62 09 75 3d c1 7c 98 bc df 14 70 3d de 4b 3c bc
       0.0598234 -0.018614175 0.058613654 -0.0114926975
000250 3d 02 b0 3d 6f cc 9c 3c 80 03 af bc 4e 03 96 bd
       0.08594177 0.01914045 -0.021363974 -0.07324849
000260 da 11 6e bd e2 b0 0c bd 5b 03 bd bd ec 8b 9e 3d
       -0.058122493 -0.034348376 -0.09229156 0.07741532
000270 a9 56 92 bc 71 a6 02 3d 21 6e 1d 3e c8 b0 cf bc
       -0.017863588 0.031897012 0.15374042 -0.02535285
000280 d8 b6 7d 3d 50 55 dc bb 58 40 1e bb 1a 72 81 bd
       0.06194195 -0.006724037 -0.0024147239 -0.06320591
000290 d3 39 e6 3d 24 bc 31 3d 9c b7 8d 3d b6 7f b4 bd
       0.11241498 0.043392316 0.06919786 -0.088134214
0002a0 64 90 06 3d 32 3a ad 3d 1a b1 5d 3c 44 b8 95 3d
       0.032852545 0.084583655 0.013530994 0.073105365
0002b0 e2 7f cd bd 84 83 9d 3c ba f5 30 bd f5 29 eb 3d
       -0.10034157 0.01922775 -0.043203093 0.11482612
0002c0 69 3b 0f 3c 52 3f 7b bb ff f6 9b 3d 52 88 88 bd
       0.008742192 -0.0038337302 0.0761547 -0.06666626
0002d0 9f c4 65 bd 09 74 9b bc 85 75 62 3c e2 37 83 3d
       -0.056095716 -0.018976228 0.013821964 0.06407143
0002e0 b7 f9 8b 3d 51 64 fd 3d 2d 10 63 3d af 14 2d 3d
       0.06834739 0.123726495 0.05543535 0.042256054
0002f0 7f a2 b3 bd e2 77 71 bd df c0 13 3d 9b f1 d9 3c
       -0.08771228 -0.05895222 0.036072608 0.026604464
000300 25 05 26 3d 85 db f8 3d 68 06 aa bd bf 54 77 bb
       0.04053225 0.12151245 -0.08302003 -0.0037739722
000310 d4 8c 88 3d 9f 20 c5 3c 45 da 45 bc 15 9a d5 bb
       0.06667486 0.024063407 -0.012075965 -0.006518612
000320 4d 6f cf 3d 2f 0c 89 bd 6a fc 03 bd 33 c5 a5 3d
       0.10128651 -0.06691777 -0.032223143 0.080942534
000330 cf 46 49 bd 3e 2c 9d bd 90 33 18 3d 96 9d b6 3d
       -0.049139794 -0.07674454 0.03715855 0.08916776
000340 6c c2 a6 3d 60 01 11 bd c0 5e a0 3d e0 b7 76 3d
       0.08142552 -0.035401702 0.07830572 0.06023395
000350 08 75 e4 3d 27 16 c4 bc df 1e c5 3c ad 40 61 3d
       0.111551344 -0.023936344 0.024062572 0.05499332
000360 87 34 82 3a 18 a5 39 3d 63 d9 d3 bc 25 d6 cc 3d
       0.0009933867 0.04532346 -0.025860494 0.10001782
000370 50 34 c8 bd 9d 32 bd 3c 75 97 98 3c 99 db e7 3d
       -0.09775603 0.023095423 0.018626908 0.11321182
000380 22 d8 cc 3d 7b 83 72 bd 8e f6 a5 bd 2f 08 b9 3d
       0.100021616 -0.05920742 -0.08103667 0.09034764
000390 69 34 0a bd 3c df 5e bd 6e 92 ec bd de 8b 81 bd
       -0.03374139 -0.05441211 -0.11551367 -0.06325506
0003a0 05 a8 83 bd 22 17 9e bd df af 0b be 82 28 47 bc
       -0.064285316 -0.07719256 -0.13641308 -0.012155654
0003b0 b5 3e a7 3d ea 66 b1 bd eb 43 e4 3d 21 bd f6 bc
       0.08166257 -0.086622074 0.11145767 -0.03011948
0003c0 f6 74 90 bc c6 1b 71 bd 55 03 dd bd cf eb 83 bc
       -0.017633896 -0.058864377 -0.10791651 -0.016103653
0003d0 38 8c 80 3d f0 ea e2 bc 2b 5b a1 bd c5 b5 22 3d
       0.062767446 -0.027699918 -0.07878717 0.03972413
0003e0 fb 23 9f 3d d8 e7 2c 3d d6 56 da 3b 48 48 b9 3d
       0.077705346 0.04221329 0.0066631837 0.0904699
0003f0 8b 3a ab 3c 6c 5e 63 3d d4 c0 9a bd 37 9c 50 3c
       0.020901939 0.05550997 -0.0755631 0.012732557

bias f4 [64]
000000 c6 79 cf bd c3 f3 26 3e e8 17 e4 bd d0 3e c8 bd
       -0.10130648 0.16303925 -0.11137372 -0.097776055
000010 18 60 50 bb 57 45 19 3e 06 e1 7b bc c6 7a a2 bd
       -0.0031795558 0.14967857 -0.015373474 -0.079335734
000020 38 16 36 3d 91 42 79 bd cd 06 97 3d ef ee be bd
       0.044454783 -0.0608545 0.07374344 -0.09322917
000030 de 08 0d be fd a3 c5 bc 24 71 53 bd 21 4c c2 bc
       -0.13772914 -0.024126047 -0.05162157 -0.023717942
000040 c9 91 90 bc af 63 04 be bf 58 37 bd 2a 40 b8 3d
       -0.01764764 -0.12928651 -0.04476237 0.08996613
000050 01 8d 75 3d be 94 34 3d 70 e2 19 3e 03 a0 eb bd
       0.059948925 0.044087164 0.15027785 -0.11505129
000060 52 10 89 3d 16 53 50 bd a2 1c ca 3d 63 22 99 3d
       0.06692566 -0.050860487 0.098687425 0.07477262
000070 6c 37 89 bd bd 14 81 3b 3c c8 05 3d 2c f5 d0 bd
       -0.06700024 0.00393924 0.03266166 -0.10203013
000080 9f 76 8c bd 06 1a 16 be 9e 3e db bc 4d 1b 3e 3e
       -0.06858563 -0.14658365 -0.026763257 0.18565102
000090 d9 a6 19 be 65 27 d1 3d 3b 29 cb bd 7b b6 45 bb
       -0.15005054 0.10212592 -0.099199735 -0.0030168581
0000a0 da e5 e4 3d c4 03 72 3d 2e 7d 3f 3d e1 e3 9a 3d
       0.11176653 0.059085622 0.04675024 0.07562996
0000b0 b5 ea 1e be 9e a7 f3 3d 4e ee e0 bd 4a c4 58 3d
       -0.15519221 0.11897205 -0.10982953 0.05292157
0000c0 e8 22 4d bd 03 fe aa bd d0 98 07 3e 9d 29 0a be
       -0.050082117 -0.0834923 0.13241887 -0.13492437
0000d0 f0 d8 94 bd 3a 67 63 3d 45 c2 17 3e f0 9e c5 bd
       -0.0726794 0.055518366 0.14820202 -0.096494555
0000e0 58 d4 14 bc 4b d4 29 bd bf fa 57 bb 14 96 77 3d
       -0.00908383 -0.041462224 -0.0032955853 0.06044586
0000f0 12 6a 6c bd d0 3f 3a bd c7 0e 53 bd a3 df 02 bd
       -0.057718344 -0.045471013 -0.051527765 -0.031951558

weight f4 [2, 64]
000000 b6 27 88 3c 11 f1 a5 3d bf ad 5c bd e3 ed 00 3d
       0.016620498 0.081026204 -0.053876635 0.031476866
000010 b5 9d 8e 3d ba d2 90 bd 44 4a 6e 3c 81 00 48 3d
       0.06963674 -0.07071443 0.0145440735 0.048828606
000020 9e db a4 bd 30 1e aa bb e1 b5 98 3d ce 2c 5f 3d
       -0.08049701 -0.005191587 0.07456566 0.05448609
000030 ce de 87 3d 0d 00 c5 bd 8c c7 0c bd 4c c0 fd bc
       0.066342935 -0.0961915 -0.03436999 -0.030975483
000040 e9 4f d8 3b eb 85 84 bd 63 3e 27 bc d1 c6 b7 3d
       0.006601323 -0.06470855 -0.010207745 0.08973468
000050 47 af 2f 3d 61 ba 8f 3c 2a b7 9e 3d 27 37 8c bd
       0.042891767 0.017544927 0.077497795 -0.06846457
000060 cf 84 10 3d 63 06 64 3c 03 37 c0 3d cf b6 53 3c
       0.035282906 0.013917538 0.09385493 0.012922003
000070 7f 74 d9 3d e0 b8 6a 3c 65 9c 6f bd 20 bc 34 3d
       0.10617923 0.014326304 -0.05849876 0.044124722
000080 a6 b5 5f 3d f8 13 c4 bd fc e0 86 3d b2 61 83 bd
       0.054616593 -0.09574121 0.06585881 -0.06415118
000090 00 30 38 bd 89 3c c7 3d 1c 1a 82 3c 39 6e 42 3c
       -0.04496765 0.09728343 0.01588159 0.011867099
0000a0 73 e2 d2 bc 82 ce 6c bd f6 94 44 bd 2c dd b4 3d
       -0.025742745 -0.05781413 -0.047993623 0.08831248
0000b0 39 26 98 bd 34 70 27 3d 82 83 94 bd ec e9 fb 3c
       -0.074291654 0.04087849 -0.072516456 0.030751191
0000c0 67 2e c4 bd dc 26 e1 bd 6e 9f 56 3d 6a a6 f0 bc
       -0.09579163 -0.1099374 0.052398138 -0.029376227
0000d0 3c 0e 95 bd c1 b5 9f 3d 78 a4 51 3d fc 23 cf bc
       -0.072781056 0.07798339 0.05118224 -0.025285713
0000e0 55 aa 33 bd 71 05 9e bc c6 98 1e bd 40 8b 90 3d
       -0.043863613 -0.019289704 -0.038719915 0.0705781
0000f0 57 c2 44 3d bb f7 aa bc f5 65 e6 ba 17 98 e9 bb
       0.0480369 -0.02087008 -0.0017577993 -0.007128726
000100 c7 f5 96 3d ce 37 f6 bb db be f4 bc e1 69 be bd
       0.07371097 -0.0075139767 -0.029876163 -0.092975385
000110 cf 77 cd 3c 68 f9 e9 bd 13 e2 9c 3d 0d e9 ac 3c
       0.025081543 -0.114245236 0.07660308 0.021107221
000120 00 05 b5 bd fd 29 14 bd 98 6e 82 bc 6b 07 4f bd
       -0.08838844 -0.036172856 -0.015921876 -0.050544184
000130 a6 8d 96 bd ba 48 09 be 81 41 90 3d cd 8d 38 bd
       -0.07351236 -0.13406649 0.07043744 -0.045057107
000140 f4 98 ca 3c 26 16 ab 3d b2 e6 91 3d 56 ed 12 3d
       0.024731137 0.08353834 0.0712408 0.035870872
000150 1f 9c 9d 3b bc 01 83 bc 8f d7 85 bd af 14 a3 bd
       0.004809871 -0.015992038 -0.06535255 -0.079629295
000160 d4 54 c7 bd 63 68 83 3c bd 09 1c 3d a9 e9 62 3d
       -0.097329766 0.016040986 0.038095225 0.055398617
000170 f2 35 cb 3d 81 f4 38 bd 0a 48 e7 bd 3e 11 c1 3c
       0.099223986 -0.045155052 -0.11293037 0.023567792
000180 1f 39 23 bd 2a 53 9c 3d 62 97 91 bc 9f 57 da bd
       -0.039849397 0.0763305 -0.01777238 -0.10661244
000190 9f 48 bc 3c 0b 33 32 bc e5 35 83 3d 51 2b 04 bd
       0.022983847 -0.010876427 0.06406764 -0.032267872
0001a0 8b 84 f1 bd c8 01 e8 bd e3 5d ca 3c 2b aa a1 3c
       -0.11792859 -0.11328465 0.024702972 0.019734463
0001b0 14 cb 7b 3d 1d 87 b0 ba fe 75 8d bd 54 1b 09 bc
       0.061472967 -0.0013468001 -0.06907271 -0.008368332
0001c0 c3 1a e4 bd 7c be e4 bb 7e 16 92 bd 40 a6 27 bb
       -0.11137917 -0.0069807153 -0.07133196 -0.002558127
0001d0 a4 a7 c1 3c dd d6 a4 bc 57 30 f5 bb 9d 49 d6 3c
       0.023639508 -0.020121986 -0.007482569 0.026158148
0001e0 a0 46 ab bd 40 26 80 3d 79 ca da bd b2 4e 43 3c
       -0.0836308 0.062572956 -0.1068315 0.011920618
0001f0 30 9c 15 3c e2 83 e7 3c d9 df 8f 3c 68 b2 ee bc
       0.009131476 0.028261129 0.017562794 -0.029137805

bias f4 [2]
000000 a6 ff a8 3d 31 dc 93 bd
       0.08251886 -0.072197326
