model_file/structural_el.pth (torch, 694050 bytes, 18 tensors)

bias f4 [32]
000000 1b 83 96 bb 10 8b c2 bc b1 18 c7 bc bb 83 c2 bc
       -0.0045932657 -0.02374795 -0.024303766 -0.023744455
000010 8a 4f 96 bc 07 15 d0 bc a7 34 e4 bc c7 4a 22 bc
       -0.018348474 -0.025400652 -0.027857138 -0.009905524
000020 2b 81 ea bb c4 04 8e bc d1 3e 67 bb 32 2c b2 bc
       -0.0071565113 -0.017336257 -0.0035285244 -0.02174959
000030 a8 4e 78 bc 59 54 b1 bc 72 8f e7 bc 81 03 8c bc
       -0.015155472 -0.021646665 -0.028266642 -0.017091515
000040 ee 3b bd bc ab 39 3e bc 0f 35 91 bc 85 98 92 bc
       -0.023099866 -0.011610429 -0.017725496 -0.017894993
000050 05 e2 94 bc 5c 0f 8e bc 8c 41 e4 bb 85 6d fd bc
       -0.01817418 -0.017341308 -0.0069658216 -0.030936012
000060 4b 06 a9 bc b0 f2 80 bc d0 62 9d bc 16 6f 8b bc
       -0.020632884 -0.015740722 -0.019212157 -0.017020743
000070 4f 0f 30 bd 98 6c 03 bd 56 1e 0e bc 94 b6 39 bd
       -0.04298335 -0.032085985 -0.008674225 -0.045340136

weight f4 [32, 5000]
000000 ae 7e 17 3d 56 aa b8 bb f7 45 08 bb 54 8b 4f 3c
       0.036986046 -0.00563554 -0.0020793655 0.012667496
000010 52 8d a7 bc ab 24 95 ba af d4 1c bb 47 9c 2b ba
       -0.020453129 -0.0011378726 -0.002393048 -0.00065464195
000020 1d 0f 10 bc 0f f1 ac ba 0e 4b 0f 3d 76 ab 60 3d
       -0.008792666 -0.00131944 0.034983687 0.054851018
000030 e7 96 cd bb d9 4b 20 bc 8e f9 05 3d a4 6c 0b bd
       -0.0062740925 -0.0097837085 0.032708697 -0.034039155
000040 08 f0 cd 3c ba be e8 bc c2 16 8d 3c ef 3e 73 bc
       0.02513887 -0.028411258 0.017222766 -0.0148465475
000050 51 73 e7 b7 26 0d f6 bc a7 da 3b 3d ee 93 73 bb
       -2.7591044e-05 -0.030035567 0.04586282 -0.003716703
000060 87 14 36 3c cc 33 fd 3c 26 d7 75 bc ba e9 2d 3d
       0.011113293 0.030908488 -0.015004909 0.042459227
000070 30 52 8e ba 1e f7 6c bb a4 fa 54 bb 06 99 c2 bb
       -0.0010858234 -0.0036158036 -0.0032498026 -0.005938652
000080 d1 6a d4 3c 66 dc be bb de 61 cf 3b 9d 52 61 3c
       0.02592984 -0.0058246134 0.0063288053 0.013752607
000090 7e 18 99 3b f3 d8 2f 3c b4 11 48 3c 1f b0 51 bb
       0.004672109 0.010732877 0.012211252 -0.0031995845
0000a0 a5 e2 9e 3c 99 dc d1 ba 40 e4 10 3a 1f d2 4b 3d
       0.019395182 -0.0016011178 0.0005527176 0.049760934
0000b0 5d 18 06 b9 4d 65 b7 3b 1d ea 84 3c 22 17 5e bc
       -0.00012788312 0.005596793 0.016224915 -0.01355532
0000c0 4e ad 59 3c 63 f0 e6 bc ca 40 ac 3c 1b de f5 ba
       0.013285948 -0.028190797 0.021026988 -0.0018758209
0000d0 ab 17 da bb e6 7c 29 3d 28 f8 15 bc a8 d2 ab 3c
       -0.0066556535 0.041378878 -0.009153403 0.020974472
0000e0 ff ed 8a bc 66 aa 9a bb 12 d0 d2 bc 5d 06 b1 bc
       -0.016959189 -0.00472002 -0.025733981 -0.02160948
0000f0 91 7f 82 bb 6a c9 61 3c 9f 44 02 bc 3f fe 21 bc
       -0.0039824923 0.013780931 -0.007950931 -0.009887277
000100 13 42 26 3c 74 0c ea bb 82 99 88 bc 66 11 21 3d
       0.010147589 -0.007142598 -0.01667476 0.039323233
000110 e3 63 27 bc 93 c6 dc 3c 7a cc 2e 3d 7c 36 af ba
       -0.010216686 0.026950156 0.042675473 -0.0013367678
000120 68 2d 09 bc 70 8e 97 bb 01 4c 5a 3c d1 e0 a8 3b
       -0.008372642 -0.004625134 0.013323785 0.0051537533
000130 41 bc f4 3c 26 27 7d 3a 7f 17 9f bc 9a 08 2a bc
       0.029874923 0.00096570177 -0.019420383 -0.010378027
000140 d8 a5 9f 39 2b a9 3a 3d 6f 13 30 3d 3e 39 32 bd
       0.00030450406 0.045571487 0.042987283 -0.04351162
000150 60 1c 04 bb e5 ef 63 3b 7e f0 c2 bc df b4 51 bb
       -0.0020158514 0.003478044 -0.023796316 -0.0031998677
000160 39 6a ae ba f2 50 2d bc c1 f3 91 3c 02 31 54 3c
       -0.0013306803 -0.010578381 0.017816426 0.0129511375
000170 bd 09 b4 bb 74 f4 04 3c f4 dc 8a bb 51 49 9e ba
       -0.005494325 0.008114923 -0.0042377654 -0.0012076293
000180 63 f5 26 3b a1 c4 a4 bc 92 b6 9c bb 31 34 99 3c
       0.0025475852 -0.020113291 -0.0047825063 0.018701645
000190 93 11 b5 39 f2 4c 59 bb b7 6e 9f 3c e5 c5 13 3a
       0.00034536104 -0.0033157435 0.019461973 0.00056370936
0001a0 8a 65 7b bc 34 14 f2 bb 42 dd be bb c8 6a a3 bb
       -0.015344033 -0.0073876623 -0.005824716 -0.0049870946
0001b0 d5 28 f3 3b ed 99 0a bc 0e c5 59 bc 26 0c fe bb
       0.007420639 -0.00845955 -0.01329161 -0.007752913
0001c0 88 b7 57 3b 98 42 0d 3c 15 bc a7 3c 8a b4 c3 3c
       0.003291579 0.008621834 0.020475427 0.023889799
0001d0 82 40 ca 3c 90 b0 23 bb df 7d e1 3c d7 52 cd 3a
       0.024688963 -0.0024977066 0.02752584 0.0015664947
0001e0 27 a9 21 3d b4 e4 71 bb 6f a5 b8 b9 c8 f1 f3 3c
       0.039467957 -0.003691 -0.00035218472 0.029778376
0001f0 74 98 16 3c 28 5b 98 3d c0 02 f7 b9 90 93 53 3d
       0.009191621 0.07439262 -0.0004711356 0.0516544
000200 c3 4f df bc b9 39 de bc 3b 7b 39 3c 3d bd 1b 3c
       -0.027259713 -0.027127134 0.011320884 0.009505567
000210 32 1d 83 3c 23 db 57 3a 05 0e a2 3c 2d d5 d6 3c
       0.016005132 0.0008234253 0.019782076 0.026224697
000220 cc a0 40 3d 8e 90 b7 bc d0 86 07 bc 0b 46 8a bb
       0.047028348 -0.022407796 -0.008271888 -0.0042197756
000230 1d 61 fe 39 81 24 08 bb b6 d4 79 3c 87 c3 e6 3c
       0.0004851901 -0.002077371 0.015248468 0.028169407
000240 d1 dc ca bb 7b a6 86 3c 0b d1 40 3c ea 00 fa 3b
       -0.006190874 0.016436806 0.01176859 0.0076295035
000250 e7 36 50 bb 74 f1 7a bc cb 8f 4d 3d c5 74 c8 3c
       -0.0031771006 -0.015316356 0.05018596 0.024469743
000260 f0 6a 7c 3b 8e 10 da b9 88 93 4b 3b 8c 08 c4 3c
       0.0038515888 -0.00041592534 0.0031063277 0.023929857
000270 46 a7 06 3d 52 73 63 3c 52 cd 1d 3d 34 fb bc ba
       0.032874368 0.013882475 0.038525887 -0.0014418126
000280 b9 7b 0e 3d 54 9d 0b 3d ae 09 1f 3c 91 49 9b 3c
       0.03478596 0.034085587 0.009706898 0.018955978
000290 69 8f 2a 3c 5f 1d dc bc 32 0f 68 bb 3a f8 08 bd
       0.010410168 -0.026869474 -0.0035409448 -0.033439852
0002a0 c5 50 06 3a d4 31 f1 bc ec 99 d8 3a d8 e3 4b 3d
       0.000512373 -0.029442705 0.0016525364 0.049777836
0002b0 ca 9e ee 3c 3b 43 81 bc c6 76 37 bc cc b5 9d 3b
       0.02912845 -0.015779128 -0.011197751 0.0048129316
0002c0 bf 05 14 bd f9 5f 49 bc cf ee fe 3c ab ec 73 bc
       -0.036138292 -0.012290948 0.031119732 -0.014887969
0002d0 d0 27 27 bc 79 0e eb bc 60 5c 91 3b 49 e4 0a 3b
       -0.010202363 -0.028693425 0.004436061 0.0021193197
0002e0 5f 77 0c 3d ab a5 9b 3c 89 e5 f3 bb e4 60 0f bb
       0.03429353 0.018999895 -0.007443134 -0.002187782
0002f0 c8 dc 61 bc 40 d1 56 bb ae 7f 46 3d 47 3a c2 3a
       -0.0137855485 -0.0032778531 0.04846161 0.0014818393
000300 b2 16 8d 39 74 4d c9 bb a9 a8 a7 b9 65 ca 2a 3b
       0.00026910525 -0.0061432663 -0.00031978384 0.0026060578
000310 ec ef 22 ba 92 71 99 3c 43 ea f7 bb 4c bc c8 bc
       -0.0006215561 0.018730912 -0.007565768 -0.02450385
000320 f1 6c 11 bc 5f 16 6c 3c f5 64 dc 3c a8 50 d5 3c
       -0.008876071 0.014409631 0.026903609 0.026039436
000330 b1 93 a7 bb 99 04 97 bc 1f 6b 85 bc bf 8c 4c bc
       -0.0051140417 -0.01843481 -0.01628643 -0.012484728
000340 26 b0 52 3d 02 77 d9 3c b3 ca 1d bc d8 12 13 bd
       0.05143752 0.026546005 -0.009630847 -0.035906643
000350 7c 49 2f 3d d9 e1 9c bb 9e 6d 29 bd 7b d1 a7 3c
       0.04279469 -0.0047876653 -0.041364305 0.02048563
000360 9b 96 b3 3a 0f 54 9b 3c fc 93 d5 3c 30 2e fc ba
       0.00137015 0.01896098 0.026071541 -0.0019239839
000370 97 fc 22 3d 49 f9 1c bc c7 e4 a9 bc 99 e7 68 bb
       0.03979167 -0.009580919 -0.020738972 -0.0035538434
000380 92 f9 73 bc 17 b6 f8 bc fd 4d 4c bb e5 c4 0e bd
       -0.014891045 -0.030360265 -0.0031174414 -0.034855742
000390 56 24 cf bc 79 35 d9 bb 34 ac 1b 3d fc cd ce 3c
       -0.025285881 -0.006628689 0.038006023 0.025244705
0003a0 bc 12 7c bc 19 b5 67 3c 8b 97 dc b8 47 e1 11 3d
       -0.015385326 0.014142298 -0.000105186446 0.03561523
0003b0 6a 3e 31 bb c8 f5 cb 3c 4d 4c 17 3b 4c 1f c0 bc
       -0.0027045258 0.024897471 0.002308625 -0.023452424
0003c0 e5 7c 0a 3d d1 4d e2 bb 17 5f 5e bc 13 76 ad ba
       0.033810515 -0.006906249 -0.013572476 -0.0013234041
0003d0 cd ba e5 bb 71 1b b9 bb b6 cd 80 3c db 99 49 ba
       -0.007010794 -0.005649023 0.01572309 -0.0007690468
0003e0 8a 84 fc 3c b0 25 39 37 9e 58 e2 3a 06 47 25 3d
       0.030824918 1.1035634e-05 0.0017268842 0.040350936
0003f0 ce ec bd 3c 95 58 b8 bc 6d 39 bb 3c b9 c5 0f 3c
       0.023184206 -0.022503177 0.022854531 0.008775168

bias f4 [32]
000000 14 a1 12 ba d8 5a 67 ba 36 cd 40 3a 0d 1e d7 ba
       -0.00055934605 -0.00088254875 0.00073547976 -0.0016412154
000010 83 13 01 bb ee cf e9 ba 3c d2 95 ba ba b1 b1 ba
       -0.0019695468 -0.0017838457 -0.0011430453 -0.0013556995
000020 a3 00 2e bb 86 93 83 ba 84 58 8d ba ec 86 18 bb
       -0.0026550672 -0.0010038472 -0.0010783826 -0.002327378
000030 0f 81 a1 ba 79 ed 92 ba 8b 80 bc ba 33 94 af ba
       -0.0012321788 -0.0011209688 -0.001438157 -0.0013395607
000040 72 9b 00 ba 01 5b c2 ba 41 ba a9 ba b8 8f ab ba
       -0.00049059757 -0.0014828147 -0.0012949185 -0.0013089096
000050 e8 68 fc ba 41 45 1c bb dc d4 91 ba ae 4f cb ba
       -0.0019257339 -0.002384499 -0.0011126059 -0.0015511417
000060 79 a5 25 bb a1 c1 63 b8 64 8c e9 ba 7f 1c 44 bb
       -0.0025275631 -5.430135e-05 -0.0017818329 -0.0029924212
000070 4a 02 32 b9 17 54 9b bb f4 13 86 ba f1 18 97 ba
       -0.00016976256 -0.004740249 -0.0010229335 -0.0011527819

weight f4 [32, 32]
000000 b1 69 0d 3e a7 dc 57 be 3f aa 91 3e a5 8e 00 be
       0.1380985 -0.21080266 0.284502 -0.12554415
000010 ab 30 7b 3e 47 81 d5 bc 44 1d 40 bd d2 35 97 3d
       0.24530284 -0.02606262 -0.04690291 0.07383312
000020 83 7d a2 3d 1f 46 64 3e d1 0a 57 be a5 1d 97 be
       0.07934096 0.22292374 -0.2100022 -0.29514804
000030 e4 17 d7 3b 02 38 3d be 61 e9 84 be 01 80 88 be
       0.0065641273 -0.18478397 -0.25959304 -0.2666016
000040 32 72 9c bc 27 e7 00 3e 2e fa 89 be 5d b4 18 3e
       -0.019097421 0.12588178 -0.26948684 0.14912553
000050 59 d4 41 bb 97 b8 25 3e 80 87 40 3e 7c 95 52 bc
       -0.0029576032 0.16183697 0.18801689 -0.012853023
000060 0c ac ef 3d a9 bd 62 be ba 0c d3 bd 82 c8 26 3e
       0.11702737 -0.22142662 -0.10305162 0.16287425
000070 66 ee 5d 3e 8d 62 c1 3d 73 75 0f be f4 9c 8f 3e
       0.21672973 0.09442625 -0.14009647 0.28049433
000080 fc cd c2 3c 8e c5 54 be 45 e0 81 3e 6e 20 17 bd
       0.023779862 -0.20778486 0.25366417 -0.03689616
000090 44 4b 57 be 10 77 13 3e 44 e2 30 be 06 aa bd bd
       -0.21024805 0.14400887 -0.17273813 -0.09260945
0000a0 b8 d8 82 3e 47 75 3c 3d b1 f5 0d 3e f8 52 d7 3d
       0.25555968 0.046010282 0.13863255 0.10513872
0000b0 30 a6 bd 3d b5 f4 37 be a2 12 6a 3e a5 4f 72 bd
       0.092602134 -0.17964442 0.2285867 -0.059157986
0000c0 f0 e6 00 3e 1e f0 31 be d4 26 36 bc c5 21 63 3e
       0.12588096 -0.17376754 -0.011117656 0.22180851
0000d0 98 d6 ec bd a6 d1 87 3e ab cf 79 be ac 46 55 bd
       -0.11564368 0.26527137 -0.24395625 -0.05206935
0000e0 64 88 6a 3d 76 3f 10 be 67 b1 ef 3d 24 e3 1e be
       0.05725898 -0.14086708 0.11703759 -0.15516335
0000f0 ef 96 52 3e b5 1b 52 bd d5 21 84 3e bc e0 67 3e
       0.20565389 -0.051295955 0.25807062 0.22644323
000100 cd df 45 3e ec 29 8f bd 43 5c 5b bd bb e6 81 3e
       0.19323654 -0.06990418 -0.053554785 0.25371346
000110 cf 00 28 bc f4 87 13 be 7d 31 a4 3e 73 3d e5 bd
       -0.010254099 -0.14407331 0.32069007 -0.11193361
000120 54 26 46 be de e5 80 bd d8 84 38 be ba b5 5d be
       -0.19350559 -0.06293844 -0.18019426 -0.21651354
000130 f9 22 9a bc f9 88 5c be c3 38 8d 3e 26 19 c1 3d
       -0.018815504 -0.21536626 0.27582368 0.09428625
000140 b4 2a 14 be c0 b6 0a 3e 14 6e 74 3e c8 a2 2f 3d
       -0.14469415 0.13546276 0.23870116 0.04287985
000150 28 83 69 be 91 62 23 be 65 60 f2 3d 9f 41 d6 bd
       -0.22803938 -0.15955569 0.11834792 -0.10461735
000160 14 a4 e8 bd fc 80 70 3d 1a e1 64 be 6c 45 9e 3d
       -0.113594204 0.05871676 -0.22351494 0.07728085
000170 50 d6 22 be ef 3a b4 bc 52 00 ca bc a1 aa 6d be
       -0.15902066 -0.022000758 -0.024658356 -0.23209621
000180 03 da bf 3d 7c a3 8f bd a4 56 06 3e 50 7f 81 be
       0.09367754 -0.07013604 0.13118988 -0.25292444
000190 7e 45 69 3e 80 4a 83 3d 25 cb 61 3e de 55 55 3e
       0.22780415 0.06410694 0.2205015 0.20833537
0001a0 d3 4b 8a be f8 d7 ce bd f9 17 b1 3e 60 51 85 3e
       -0.27010974 -0.100997865 0.34588602 0.26038647
0001b0 ee 18 3c bb 1e ef 3b be cf b0 3e 3e 70 7c 96 3e
       -0.0028701383 -0.18352935 0.18622135 0.29391813
0001c0 be 0f 1c be f2 ba 36 bd 0c 84 e1 bd f5 f3 8a be
       -0.1524038 -0.04461188 -0.11011514 -0.2713925
0001d0 88 64 7b 3e e8 65 58 be f7 ad 22 3d 66 48 db 3d
       0.24550068 -0.21132624 0.039716687 0.10707168
0001e0 d5 8c 88 be 01 f5 f4 3d ea e5 86 bd 2d 2e 8e be
       -0.26669946 0.11960793 -0.065868214 -0.27769604
0001f0 94 c7 0f 3b ac 66 9f 3e 71 24 85 3d f2 0b 89 3e
       0.0021939026 0.3113302 0.06501091 0.26766926
000200 58 36 28 3e 58 81 5d bd 91 80 41 3e 1a eb 1c be
       0.1642698 -0.05407843 0.188967 -0.15324059
000210 9e c2 0d 3e 2f 72 9a 3e 75 6e b6 bc 12 08 11 be
       0.13843772 0.3016524 -0.022269467 -0.14163235
000220 22 a9 8a 3e a6 f1 16 3d 53 70 79 3d d0 48 76 3e
       0.27082163 0.036851548 0.060898136 0.24051213
000230 38 e8 ec 3d 3d 23 7d be 05 69 84 3d 60 36 3f 3e
       0.1156773 -0.24720474 0.064653434 0.18673086
000240 c7 bc a8 3d 48 3b 68 3e 24 3d 01 bd ce e7 38 3e
       0.082391314 0.22678864 -0.03155245 0.18057176
000250 43 2e 71 be a8 af 20 be f1 a7 f6 3c ad 31 4a 3e
       -0.23552804 -0.15692008 0.030109378 0.19745512
000260 fa ac 85 be a2 21 e6 3c fb 29 12 be 12 8d 70 be
       -0.26108533 0.02809221 -0.14273827 -0.23491314
000270 6a aa 09 3e 1d 0a 37 3e 33 cb 54 3c 4a ab 1d bc
       0.13443914 0.17874952 0.0129879 -0.009623358
000280 13 47 d7 bd d7 07 44 be 4d c2 3d 3e fa 18 4f 3e
       -0.10511603 -0.19143616 0.18531151 0.20224372
000290 d3 47 bb bc 48 76 8a 3e 52 66 1e 3d 66 3d 0b 3e
       -0.022861397 0.27043366 0.0386718 0.1359764
0002a0 3a ce c3 bd cb 01 6e be d1 b0 29 3e 36 b5 4d be
       -0.09560819 -0.23242871 0.16571356 -0.20088658
0002b0 2e 30 06 3e 58 a4 9d 3d 11 4a 86 3d 3c c1 03 3e
       0.13104317 0.07697362 0.06557096 0.12866682
0002c0 ec b1 5e 3e 93 63 c8 bd 71 0f fa bc 17 e6 c8 bd
       0.2174756 -0.09784617 -0.030524941 -0.09809511
0002d0 f4 cd 61 3e cc 8d 42 be 75 dd 83 3d d4 49 50 3e
       0.22051221 -0.18999404 0.06438724 0.20340663
0002e0 a2 41 84 3c c2 ac 00 be aa 02 f0 bc b9 c2 0a 3e
       0.016144577 -0.12565902 -0.029298145 0.13550843
0002f0 c6 6b f4 3c 2a b4 4d 3d 3e e6 57 be da 2f 55 3e
       0.029836547 0.050220646 -0.21083924 0.20819035
000300 15 9e 18 be 51 a6 8f be d4 c1 d2 3d 3a dd 56 3e
       -0.14904054 -0.28056577 0.10290876 0.20982829
000310 14 a3 5b bd 4c 4e 8d 3e 8b 18 94 3e ed 44 0e be
       -0.05362232 0.27598798 0.28924975 -0.1389348
000320 74 4e ed bd 28 d9 02 be 59 05 81 3b c5 9e ee 3c
       -0.11587229 -0.12778151 0.003937405 0.029128442
000330 2f 01 6e 3e cf 6c 06 3e f0 81 bc 3d 48 a2 8a bc
       0.23242639 0.13127445 0.09204471 -0.016923085
000340 d4 76 9c bb 81 bd 89 bd f8 29 e9 bd a3 e2 97 be
       -0.0047749076 -0.06725598 -0.11384958 -0.29665098
000350 76 70 3a 3e d4 37 13 be 9d 40 fc bc c8 68 e2 3d
       0.18206963 -0.14376765 -0.030792529 0.11055142
000360 49 89 53 bd 5d 36 1c 3e 19 34 f8 3c 2c 04 8c 3e
       -0.051644597 0.15255113 0.03029828 0.27346933
000370 8d f1 87 3e b2 a3 2f be 37 20 37 3b 27 45 6d 3d
       0.26551476 -0.17152289 0.0027942786 0.057927277
000380 f9 c0 87 3e f9 c8 bc 3c eb 1d 88 bc d7 54 84 3e
       0.26514414 0.02304505 -0.016615828 0.25845978
000390 01 96 47 bd e3 af 26 3d b0 19 02 3d 24 86 e7 3d
       -0.04872704 0.040695082 0.03176278 0.11304882
0003a0 24 f4 c8 bd 7c 22 41 be 63 6b 79 3d 0a d9 68 be
       -0.09812191 -0.18860811 0.060893428 -0.22739044
0003b0 93 6d 67 3e 57 86 84 be b5 05 05 3e b5 f5 1a 3d
       0.22600393 -0.25883743 0.12990458 0.03783198
0003c0 f9 3c 67 3e 56 f9 d0 bd f9 b3 c5 3d f7 45 d1 3d
       0.22581853 -0.10203807 0.09653468 0.10218423
0003d0 09 bd 5b be df db ed 3d 05 b0 cc 3d d6 84 cb 3c
       -0.2145883 0.11614203 0.099945106 0.024843615
0003e0 19 00 18 3d 84 76 81 be 32 5b d2 3d c2 ee 88 3e
       0.037109468 -0.25285733 0.102713004 0.26744658
0003f0 e5 e4 33 3e df 6f d4 bd 8e 8d 78 be fa 7d be 3c
       0.17567785 -0.103729 -0.24272749 0.02325343

bias f4 [64]
000000 59 3f 26 3d 68 c4 54 3c e5 a5 a5 bc 54 fc b3 3d
       0.040587757 0.01298628 -0.020220706 0.08788362
000010 a0 11 a9 3c fb d8 fa bc 16 06 9c bc 8c 26 a7 3d
       0.020638287 -0.030621042 -0.01904587 0.08161649
000020 13 9a 89 3d 66 6b 17 bc 3a e7 ca 3d 0b 17 a6 bb
       0.067188405 -0.009241914 0.09907384 -0.005068665
000030 34 cc a4 bd 1f 78 7c bd a3 27 24 3d ee 5f 23 3d
       -0.08046761 -0.061637994 0.040076863 0.039886408
000040 d4 08 3a 3c d8 99 6f 3d 5e 61 b1 3d 85 79 ca 3c
       0.011354644 0.058496326 0.086611494 0.024716148
000050 38 7f bf 3c 31 b1 6d 3d e0 50 a6 bc f6 80 76 3c
       0.023376092 0.05803031 -0.020302236 0.015045395
000060 e2 22 60 bc 4f cc 1e bd 2f 6d 84 3c b9 e9 3b bc
       -0.013680192 -0.038769063 0.016165344 -0.011469298
000070 b1 f3 64 3c e4 ea 8f 3c 8f 33 91 bd f5 95 90 3d
       0.013974116 0.01756806 -0.07089912 0.07059852
000080 75 a1 64 3d 77 7d 86 3d 52 99 04 bd 75 63 54 3d
       0.05581804 0.06566899 -0.03237278 0.051852662
000090 65 a4 44 b9 e1 b6 04 bc dd 72 86 3b 0a fc 17 3d
       -0.00018753258 -0.008100242 0.0041030482 0.037105598
0000a0 ea 1d 88 bd ec c2 e8 bb 86 27 13 bc 89 64 96 3d
       -0.06646331 -0.0071033146 -0.008981591 0.07343394
0000b0 a7 22 5b bd c7 99 6d bb 2e 68 7b 3c 42 db 98 bc
       -0.053499844 -0.0036254989 0.015344663 -0.018659238
0000c0 24 81 dd 3c 05 ed c1 3c 1f 81 03 bd 72 18 6e bd
       0.027039118 0.02367259 -0.03210556 -0.05812878
0000d0 e0 db 73 bc 5e 8a 41 3c c9 81 53 bd 93 ac 9a 3d
       -0.014883965 0.011812774 -0.051637445 0.07552447
0000e0 28 47 72 bd ee d3 06 3b e9 30 71 bd 1c 9f 5a 3c
       -0.05914989 0.0020573097 -0.058884535 0.013343599
0000f0 88 9e 94 3c e3 8b b6 bd 7c ed ba bd 15 69 99 bd
       0.018142 -0.089134 -0.09127328 -0.07490746

weight f4 [64, 32]
000000 42 5b 09 be 73 81 6a 3d be 7c cb 3d a6 25 2f bd
       -0.13413718 0.05725236 0.09935902 -0.042760514
000010 7e 65 32 be a7 85 49 be 84 a4 2d 3e da ac de bd
       -0.17421529 -0.1967989 0.16957289 -0.108728126
000020 58 3d bc bd 2e bf e7 3d b8 1f 2c be 39 25 4c 3e
       -0.09191388 0.113157615 -0.16808975 0.19936074
000030 a0 af 74 bd 48 31 3c 3d 07 58 9d bd f9 6b 2f be
       -0.0597378 0.045945436 -0.076828055 -0.17131032
000040 f5 b5 2b 3e 76 d2 af bc b1 39 54 3d f8 77 c3 bd
       0.1676863 -0.02146266 0.05181283 -0.095443666
000050 f0 12 36 3e 62 84 29 be 41 f1 7c 3e 69 87 11 3e
       0.17780662 -0.16554406 0.24701406 0.14211811
000060 a1 64 96 3e c1 b7 57 be 29 dd 39 be 1b e8 80 3e
       0.2937365 -0.2106619 -0.18150772 0.25177082
000070 a2 5a 1b 3e 58 c1 9a 3d c3 b1 45 bd 15 e8 4a be
       0.15171292 0.07556409 -0.04826523 -0.19815095
000080 7d 66 73 3e d1 c2 13 be 3e 84 4a 3e ed ea fe 3d
       0.23769565 -0.14429785 0.19777009 0.12447152
000090 f1 16 76 bd 70 e4 67 be 0e 05 13 3e f3 c5 ce 3d
       -0.060080472 -0.22645736 0.14357397 0.100963496
0000a0 fb 7e b6 3d dc 73 d3 bd 31 f6 35 be 81 30 96 3b
       0.08910938 -0.10324833 -0.17769696 0.004583419
0000b0 a0 73 91 3d 24 4e ee 3d 32 e6 9f bd a3 55 90 bd
       0.07102132 0.11635998 -0.07807578 -0.07047584
0000c0 6e 39 b0 3d 45 af 2e be 63 a0 ab 3c 65 3c 7c 3c
       0.08604704 -0.17059048 0.020950502 0.015395259
0000d0 04 82 16 3e 32 42 a1 3d ce 5f 78 bd d0 3a 5f 3e
       0.14698035 0.07873954 -0.06063824 0.21799779
0000e0 4f 52 1e 3e 0a 5b 11 3c fe 00 c1 bd 54 14 86 3d
       0.15461086 0.008871803 -0.09424017 0.06546846
0000f0 28 c7 22 3e 7c 65 55 be da 7b 35 3d 65 79 2f 3c
       0.15896285 -0.20839494 0.044307567 0.010710095
000100 ef bb 0a 3d 4c 2c 5a 3e 4e ff 8f be 34 cf 4a 3e
       0.033870634 0.2130596 -0.2812447 0.19805604
000110 16 15 81 3e d7 f9 9b bd 17 ec 33 3e fc 13 57 be
       0.252114 -0.076160125 0.1757053 -0.21003717
000120 71 d9 43 bd c9 0f 97 3d 58 bc a5 bd 44 c4 99 3d
       -0.04781479 0.07376058 -0.08092564 0.07508138
000130 20 8e 1c be c2 ad 3e 3d 46 0f b8 3d 3f 5f 14 3e
       -0.15288591 0.046552427 0.08987288 0.14489459
000140 c1 ef 05 be ae 3c f0 bd a9 dc 04 bd a6 f4 e7 3d
       -0.1307974 -0.11730324 -0.032437 0.1132596
000150 22 cd cb bd 1a 69 56 3e 2e 3d bc 3a b1 71 a4 3d
       -0.09951235 0.2093853 0.0014361495 0.080294974
000160 83 52 dd 3c a9 18 c5 bd 7a 8d 74 be c7 d5 4c be
       0.027016884 -0.09623844 -0.23882094 -0.20003425
000170 ef fd 0d bd 14 b1 41 be f8 2b 05 be 95 b3 e9 3d
       -0.034665998 -0.18915206 -0.13005054 0.11411206
000180 21 e1 4a 3d ce 7d 41 be df c9 93 3e 4d e5 21 be
       0.049531106 -0.18895647 0.28864953 -0.15810128
000190 34 a2 be bd ad eb d4 bd 68 9d f0 3d 68 e2 04 be
       -0.093082815 -0.10396514 0.11748773 -0.12976992
0001a0 7f f5 7e bc c0 3f 15 3d 40 82 2f 3e e3 03 82 3e
       -0.0155614605 0.03643775 0.1713953 0.2539359
0001b0 f9 20 d9 3c 00 2c b9 bd 08 ad 2d 3e 9c 21 a5 bc
       0.02650498 -0.090415955 0.16960537 -0.020157628
0001c0 86 4f ad bc 5a 81 70 3e e3 6e 52 3e 07 2a 17 be
       -0.021156084 0.23486844 0.20550112 -0.14762126
0001d0 31 29 2e be 8a d6 0b be f3 94 a0 3e 20 c1 07 3e
       -0.17007901 -0.13656059 0.3136364 0.13257265
0001e0 6a c9 e0 bd 32 e6 18 bc 56 d1 15 be c9 b6 10 bb
       -0.10975917 -0.009332227 -0.14630637 -0.0022081605
0001f0 a6 9f 06 3e dd e1 32 be 96 b8 33 bc 0f 56 23 be
       0.13146839 -0.17468973 -0.010969302 -0.15950797
000200 d3 00 4a be ec 15 03 3e 4f 8f 63 3e 35 b8 67 3d
       -0.19726877 0.12801331 0.22222637 0.056572158
000210 3f dc 9c bd 17 4d 17 3e b3 9b 09 3e ed e9 99 3d
       -0.07659196 0.14775501 0.13438301 0.07515321
000220 99 34 4a 3e 7a 13 8a be a1 95 ba bd b2 fe 45 be
       0.19746627 -0.26967984 -0.09110571 -0.1933544
000230 fc f6 2b 3c 67 7e 4d 3e ed c1 7d bc 50 03 5d 3e
       0.010495897 0.2006775 -0.01548813 0.21583295
000240 c5 a3 1d be e8 aa a8 bd d2 55 16 3e c6 7e f0 bc
       -0.15394504 -0.08235723 0.14681175 -0.029357325
000250 10 2e 72 3d 53 94 3b 3d 92 27 2d 3d 0b 4a e9 3d
       0.05912596 0.04579575 0.042274065 0.11391076
000260 c3 d1 25 3d c7 21 58 3e ad a6 a9 3c c5 95 08 3e
       0.040483247 0.21106635 0.02070936 0.13338383
000270 9b 61 2c 3e e4 67 74 be 75 69 9b be af a4 4f 3e
       0.16834109 -0.23867756 -0.30353895 0.20277666
000280 c7 80 71 3d e3 97 19 3e 21 cf 81 be de 88 4b bc
       0.058960702 0.14999346 -0.2535334 -0.012422768
000290 12 41 3b be 42 e9 48 be be a6 4b bd 2a d1 4e 3e
       -0.18286541 -0.19620231 -0.049719565 0.20196977
0002a0 32 21 28 3e 16 cd 54 bb e7 28 4e 3e 7a 40 57 3e
       0.16418913 -0.0032470874 0.2013279 0.2102069
0002b0 45 3d c9 3d c5 2c 34 be aa 55 15 be 6c 3f 06 bc
       0.09826139 -0.17595203 -0.1458346 -0.008193832
0002c0 13 75 c6 bd 67 34 83 be 03 89 8b bd 69 3b cc 3d
       -0.09690299 -0.25625917 -0.06813242 0.09972269
0002d0 97 47 2b 3d 7b e2 07 3e 43 63 93 3d 1d cd 7a be
       0.04181632 0.13269989 0.07196667 -0.24492307
0002e0 2d 07 4f bd 49 60 71 be a8 44 e8 bd 4b 59 e1 bb
       -0.050543953 -0.23571886 -0.1134122 -0.0068770996
0002f0 0d 9b 4a 3c 5f 0d d3 bd 5c 09 84 3d 4c 44 6e 3e
       0.012366069 -0.10305285 0.06447098 0.2326824
000300 6c 1d 4d be 4b 25 26 be 1f 4e 99 bc c6 d5 0f 3d
       -0.20030755 -0.16225164 -0.018714009 0.03511598
000310 fd eb 85 bd 68 28 73 be 9f 41 72 be 1d e2 1f 3c
       -0.06539152 -0.23745883 -0.23657845 0.009758499
000320 62 53 d0 bc 94 83 ee bd 79 4f 3b be f5 54 b9 bd
       -0.025430385 -0.1164619 -0.18292035 -0.090494074
000330 c5 cb 61 3e 4a fe d1 3c 80 4d d7 bd d4 bf b6 3d
       0.22050388 0.02563395 -0.10512829 0.08923307
000340 9b f9 f3 3a 66 9c 87 bd d5 00 10 be 6e ea 0e 3d
       0.0018613817 -0.066216275 -0.14062817 0.03489154
000350 a3 ab 85 3d a6 cb 6f be 49 89 c2 3d 8b 50 8f be
       0.06526878 -0.2341753 0.09498841 -0.27991137
000360 f0 c0 f4 3d 82 ec 40 bb 7f 21 2f bd 1a a2 2a 3e
       0.119508624 -0.0029437845 -0.042756554 0.166634
000370 75 d4 13 bd 73 e6 68 bd 92 fc 01 3e 05 83 d7 3d
       -0.036091287 -0.0568604 0.12694004 0.10523037
000380 f7 4f 37 be 33 c1 d9 bc 44 31 f5 bd 75 d8 ed bd
       -0.17901598 -0.026581382 -0.11972287 -0.116135515
000390 06 eb 6a 3e ff 90 4b 3d d3 89 32 bd a6 cb 1a 3e
       0.22941217 0.049698826 -0.04358847 0.15116748
0003a0 42 ea 2d bd e0 94 43 3d e1 92 bf bd 62 9b 0d bd
       -0.042459734 0.0477494 -0.09354187 -0.034572013
0003b0 f3 28 c1 bd b3 b9 a6 3d 48 5f 51 3e d5 89 ba bd
       -0.094316386 0.08140888 0.20446503 -0.091083206
0003c0 b4 1a 0a be 81 19 ab bd 0e c4 fe bd 51 fd 0c 3e
       -0.13486749 -0.08354474 -0.12439738 0.13768508
0003d0 f5 36 55 3c 75 b1 79 3e 88 2d 9a bd 17 bc 50 3d
       0.013013591 0.243841 -0.07528216 0.050960626
0003e0 3c 4b ff 3c 01 23 91 3e c6 67 85 bc 68 db 42 be
       0.031163804 0.28347018 -0.016284835 -0.1902901
0003f0 07 b3 15 3e 5d f0 b2 bd 16 1a 9d 3d 4d b2 4e 3d
       0.14619075 -0.08737252 0.07670991 0.05046301

weight f4 [32]
000000 63 14 82 3f 77 d3 6d 3f b0 12 78 3f 5e 36 82 3f
       1.0162472 0.92900795 0.96903515 1.0172842
000010 ef be 71 3f 54 b3 84 3f c8 03 87 3f 71 8f 76 3f
       0.94431967 1.0367227 1.0548029 0.96312624
000020 66 6f 82 3f 9c e9 7a 3f 0f ff 84 3f 01 b0 7f 3f
       1.0190246 0.9801271 1.0390338 0.99877936
000030 5d df 75 3f 3c db 85 3f ae b8 86 3f d4 37 6e 3f
       0.9604395 1.045753 1.052511 0.93053937
000040 7f 53 86 3f a6 c7 6b 3f 65 1c 7d 3f f1 90 80 3f
       1.0494231 0.92101514 0.9887145 1.0044233
000050 f2 77 6e 3f 95 eb 78 3f b2 99 81 3f 40 f2 81 3f
       0.9315177 0.9723447 1.0125029 1.0152054
000060 68 e7 7e 3f 11 30 7d 3f 85 bf 7c 3f e1 f5 6e 3f
       0.9957185 0.9890147 0.98729736 0.9334393
000070 25 2f 85 3f ea c8 77 3f 54 71 7a 3f 38 a1 83 3f
       1.0405012 0.96790946 0.97829175 1.0283575

bias f4 [32]
000000 3c 1f b2 bc dd 57 af bd 51 03 30 bd 1c ac 0a bd
       -0.02174341 -0.085616805 -0.042971913 -0.033855543
000010 8d 6e 1d bd 61 53 9a bc ca 02 1a bd 58 74 24 bd
       -0.038435508 -0.018838586 -0.037600316 -0.040150017
000020 f0 a7 df bc 24 65 e5 bc a1 a5 0b bd 62 7a 29 bd
       -0.027301759 -0.02800233 -0.034093503 -0.04137648
000030 18 bd 84 bd 90 04 15 bd c3 d1 14 bd 78 85 b3 bd
       -0.06481379 -0.036381304 -0.036332857 -0.087656915
000040 25 99 9c bd 23 9b 81 bd 88 33 ec bc a0 e9 f1 bc
       -0.076463975 -0.06328418 -0.028833166 -0.029530346
000050 4d b3 ae bd 04 cc 07 bd 15 df 30 bd d8 24 7f bc
       -0.08530293 -0.03315355 -0.043181498 -0.015572749
000060 e8 02 14 bd b9 35 97 bc 07 3c cf bc fb 35 9c bd
       -0.036135584 -0.018458234 -0.025297178 -0.076274835
000070 08 f3 97 ba 30 f9 62 bd ba 20 44 bd 28 3f 6e bc
       -0.0011592815 -0.055413425 -0.047882773 -0.014541425

running_mean f4 [32]
000000 3a 3d a7 39 0b e7 b4 bc 7d 27 98 bc c4 8c 7a bc
       0.0003189834 -0.022082826 -0.018573517 -0.01529235
000010 90 24 5d bc d2 54 9b bc 19 bc 8b bc 7e 96 79 bb
       -0.013497487 -0.018961344 -0.017057465 -0.0038084085
000020 95 cf da ba ed c8 46 bc 62 16 ba 3b 23 44 6c bc
       -0.0016693944 -0.012132865 0.005678938 -0.014420542
000030 f0 e4 10 bc 07 cd 59 bc 87 19 97 bc 88 cd 2e bc
       -0.008843645 -0.013293511 -0.01844479 -0.01066912
000040 57 cf 78 bc 08 56 d0 bb 31 50 37 bc 22 54 2a bc
       -0.015186152 -0.006357912 -0.011188553 -0.010396035
000050 c2 f7 34 bc b6 8e 56 bc 95 26 b0 39 d7 cd cc bc
       -0.011045398 -0.013095548 0.00033598082 -0.025000496
000060 da 1d 68 bc 3b 6f 2d bc 76 08 47 bc 7a 1c 37 bc
       -0.014167273 -0.010585601 -0.012148013 -0.011176223
000070 6f fe 12 bd f7 0d d0 bc ab fa 6b ba 38 f7 1d bd
       -0.035887178 -0.025397284 -0.0009001891 -0.038565844

running_var f4 [32]
000000 0d f5 bb 39 14 7f 82 3a 97 d3 c3 39 91 2e be 39
       0.00035849996 0.0009956085 0.00037350945 0.0003627432
000010 6e 73 ce 39 ea 0a bb 39 0d 23 b1 39 2b 48 b9 39
       0.00039377384 0.0003567555 0.00033786186 0.0003533972
000020 c6 0f b2 39 ee ca bb 39 a3 c0 bc 39 81 99 c8 39
       0.00033962558 0.00035818614 0.0003600168 0.00038261342
000030 37 c4 b4 39 f0 5a b0 39 db 56 bc 39 35 ed d1 39
       0.00034478467 0.0003363709 0.00035922867 0.0004004032
000040 86 53 d0 39 b2 68 d5 39 36 8d c4 39 96 b4 b2 39
       0.0003973508 0.0004070453 0.00037489244 0.00034085353
000050 c6 ae c4 39 e8 8c e4 39 00 07 a7 39 58 09 d0 39
       0.0003751425 0.00043592532 0.00031857938 0.00039679813
000060 26 05 b4 39 25 17 da 39 19 b8 bb 39 80 fc d0 39
       0.0003433611 0.00041597444 0.00035804583 0.0003986098
000070 53 0a ae 39 f4 5b d4 39 45 c5 aa 39 d8 94 b8 39
       0.00033195558 0.000405043 0.00032571904 0.00035206112

weight f4 [32]
000000 e2 f5 71 3f ab ad 73 3f ca f1 70 3f 80 1e 6c 3f
       0.9451581 0.9518687 0.9411894 0.9223404
000010 47 ec 72 3f d7 8a 72 3f 18 c0 6a 3f a6 54 70 3f
       0.9489178 0.947431 0.9169936 0.93879163
000020 e2 51 70 3f eb b8 74 3f 25 e3 6a 3f 62 48 76 3f
       0.93874943 0.9559466 0.91752845 0.962042
000030 04 da 6b 3f 9a 86 6b 3f af 52 72 3f 6e bf 68 3f
       0.9212954 0.9200226 0.94657415 0.909171
000040 16 a8 72 3f e7 b8 6d 3f d8 03 78 3f 53 9d 6f 3f
       0.9478773 0.92860264 0.96880865 0.9359943
000050 03 0f 6d 3f 1a d1 70 3f 55 1e 6c 3f 0d 84 72 3f
       0.9260103 0.94069064 0.92233783 0.94732744
000060 cd 1e 73 3f 86 be 77 3f af 42 77 3f 6f de 71 3f
       0.94968873 0.9677509 0.96586126 0.9448003
000070 13 c4 7c 3f a8 ab 73 3f 35 9f 70 3f fb 37 73 3f
       0.98736686 0.951838 0.9399293 0.95007294

bias f4 [32]
000000 c8 77 8a bc ae ee 5b bd 99 0f 39 bd 91 5d 49 bd
       -0.01690282 -0.05369442 -0.04518089 -0.049161498
000010 2f 53 2f bd 3b 37 35 bd 8f ef 88 bd bd 81 65 bd
       -0.04280394 -0.044242125 -0.06686317 -0.05603193
000020 75 c4 52 bd ad e2 15 bd 7a 85 ad bd bb 5c 2a bd
       -0.051456887 -0.036593128 -0.08472724 -0.04159234
000030 54 60 99 bd a9 dd 40 bd b6 82 39 bd 8c 24 c1 bd
       -0.07489076 -0.04708639 -0.04529067 -0.09430799
000040 ec 4d 8e bd a5 fc 6e bd 75 8e d8 bc 18 ea 37 bd
       -0.06948456 -0.05834641 -0.026435116 -0.044900984
000050 8e 09 99 bd 94 94 5b bd a8 05 88 bd 46 85 fd bc
       -0.074725255 -0.053608492 -0.06641704 -0.030947339
000060 92 dc 3d bd ca 8a 37 bc df 11 f5 bc cf 37 67 bd
       -0.04635293 -0.0112025235 -0.029915748 -0.056449708
000070 98 c3 22 bc 16 06 5c bd a2 09 61 bd 4d f3 1e bd
       -0.0099343285 -0.05371674 -0.054940827 -0.03880625

running_mean f4 [32]
000000 0b 65 d5 3d 16 1f c3 3e 41 27 b2 be 7a 54 9b 3e
       0.10419663 0.38109654 -0.34795573 0.30337888
000010 bb ae df 3e 70 9d af 3e e0 3d 86 3e 18 0a 7f 3e
       0.43687996 0.34299803 0.26219082 0.24906194
000020 de f8 22 3f c6 58 08 3f cf f2 33 3e 1a 2c 3a 3e
       0.6366099 0.5326046 0.17573093 0.18180886
000030 9a 64 0a 3f 89 2a da 3e 29 4d 03 3e 9a 89 d5 3e
       0.54059756 0.42610577 0.12822403 0.41706544
000040 a7 a4 0b 3f 2d c1 e4 3e b6 74 a2 bd f6 23 8d 3f
       0.54548115 0.4467863 -0.07932417 1.10266
000050 cb 3b 18 3f 5f 25 0b 3f c6 87 b8 3d d5 fb 12 3f
       0.59466237 0.543539 0.09010272 0.57415515
000060 84 86 b5 3e 83 78 bd be bb dd f2 bc 0e f0 f3 3e
       0.3545419 -0.37006006 -0.029646745 0.47644085
000070 80 38 af 3d 3a a7 2e 3e 7b 46 38 3f 5e 33 9e 3e
       0.085556984 0.1705598 0.71982545 0.30898565

running_var f4 [32]
000000 1d a7 37 3f 6d 3a 1d 3f 81 30 27 3f 17 d0 4a 3f
       0.7173937 0.61417276 0.65308386 0.7922377
000010 cd e8 15 3f 39 c4 25 3f e0 1c 42 3f 02 04 2c 3f
       0.5855835 0.64752537 0.7582531 0.67193615
000020 ae 59 6e 3f 6c 9f 78 3f 56 33 49 3f 47 93 52 3f
       0.9310559 0.9711826 0.7859396 0.8225598
000030 7a 77 41 3f 85 e5 46 3f de 50 57 3f 46 0b 3b 3f
       0.7557293 0.7769397 0.8410777 0.73064077
000040 dc 9e 4b 3f 8c 20 72 3f a6 dd 02 3f 7e 29 b0 3f
       0.79539275 0.9458091 0.5111946 1.3762662
000050 db 07 77 3f fd 0f 79 3f 24 2f 13 3f 2d 61 8a 3f
       0.9649636 0.9729002 0.57493806 1.0810906
000060 e2 7f 2e 3f 97 32 14 3f bf 6e 1d 3f 0f 52 3b 3f
       0.68163884 0.57889694 0.6149711 0.73172086
000070 62 a3 71 3f 94 7a 41 3f 74 0b 9c 3f e1 38 5e 3f
       0.9438993 0.75577664 1.2190995 0.8680554

weight f4 [64, 64]
000000 16 56 a8 bd d4 86 71 3d 6d bd 0e 3d 08 9e a4 3b
       -0.082195446 0.058966473 0.03484862 0.0050237216
000010 d3 dc 00 bd 63 a5 9f bc 7b 6c 2f 3d 8c 9c 87 bd
       -0.031460594 -0.019488042 0.042828064 -0.06621656
000020 1d 47 c7 bc e2 61 c7 3d 28 8e ed bd 93 d0 9c 3d
       -0.024325902 0.097354665 -0.1159938 0.0765697
000030 23 81 f2 3d b8 cb c3 bc 3f c2 01 3e 15 b3 ff bb
       0.11841037 -0.023900852 0.12671755 -0.0078033307
000040 a4 4c 39 bd 08 59 0a bc b4 54 a7 3b 13 4b 78 bd
       -0.045239106 -0.008444078 0.005106533 -0.06061847
000050 07 47 bf bd a8 c0 5f bd f4 1c 5f 39 90 4e 27 bd
       -0.09339719 -0.05462709 0.00021277723 -0.040846407
000060 1f 2c b9 3d 65 1f af 3d 4b 5e ed bd 14 5b d8 3d
       0.090416186 0.0855091 -0.115902506 0.10564247
000070 27 6e b3 3d 87 c6 19 3d 74 b0 54 3b 23 8e f7 bb
       0.08761244 0.037542846 0.0032453807 -0.007554786
000080 f4 3b 86 3d fe ee 53 bd 9c 54 d4 bd 83 32 22 3c
       0.06554404 -0.051741593 -0.103677005 0.009899738
000090 97 59 b5 3c 3d d8 74 3d 0a 30 0a bd 23 df de bc
       0.022137446 0.059776533 -0.03373722 -0.02720601
0000a0 d3 68 93 3c 72 fe bf 3d 73 6a 0c bd 1f e9 22 3d
       0.01799432 0.093747035 -0.034281205 0.039773103
0000b0 5c c4 f2 bd 5a 47 de bd 56 2c 94 3d ee 16 d8 bd
       -0.11853859 -0.10853453 0.07235019 -0.105512485
0000c0 d8 ed bf bd bc 95 be 3d 20 75 89 3d 79 ee 35 be
       -0.09371537 0.09305903 0.06711793 -0.17766751
0000d0 ba 0b 09 ba 2b 79 d2 3d f7 5f b9 3d f1 30 48 bd
       -0.00052278826 0.10277017 0.09051507 -0.0488748
0000e0 21 2b 11 3e c7 83 ab bc a6 b0 c7 bc 4d 83 0b 3d
       0.14176609 -0.02093686 -0.024376225 0.034060765
0000f0 25 61 52 bc 6a 54 1e 3e 9a b6 0d 3b cb a1 be 3c
       -0.012840544 0.15461889 0.0021623732 0.023270508
000100 76 42 f4 3d 7a 88 03 bd c1 6d 33 3d e6 ef 9c 3d
       0.11926739 -0.032112576 0.04380584 0.076629445
000110 bd 3a 48 bd 25 6e 11 be f0 83 81 bd 75 43 34 bd
       -0.048884142 -0.14202173 -0.06323993 -0.044009645
000120 71 ee 1a bd 28 04 9a 3d 0b 88 be bc b9 0c a8 3d
       -0.03782505 0.07520324 -0.02325823 0.08205552
000130 e4 0a 10 3d bc ae bd bd bf 64 dc bd d3 91 d0 bd
       0.035166636 -0.092618436 -0.10761403 -0.10184064
000140 a3 04 ff 3c 87 6d 0a bc dc 38 23 bd 0c 2f 19 be
       0.03113014 -0.008448965 -0.039849147 -0.14959353
000150 0f 24 38 bd b6 6a 9d 3d ba 1b 93 bd e6 ad e9 3c
       -0.044956263 0.07686369 -0.07183023 0.028525304
000160 b7 84 10 3d d9 a1 62 3d 1e 60 dd bd 63 d5 a6 bd
       0.035282817 0.05533013 -0.108093485 -0.08146169
000170 c9 52 ed 3c cf b7 61 bc 34 40 bf bd e1 9d d3 bd
       0.02897014 -0.013776734 -0.09338418 -0.103328474
000180 51 19 03 bd 1c db c1 bd f7 c7 20 3d f8 79 cf 3d
       -0.032006565 -0.0946562 0.0392532 0.101306856
000190 f7 c3 a3 bd 10 cf 90 3d 95 1c 01 bd b2 f9 ff bd
       -0.07996362 0.07070744 -0.0315214 -0.124987975
0001a0 e3 28 07 be 9c ed e4 bd 6a 07 4a bd 36 fb f1 bc
       -0.13199191 -0.11178133 -0.049323477 -0.029538732
0001b0 27 c8 ce 3c a7 df 22 bd a6 72 7e bc 07 92 f8 bd
       0.025241924 -0.039764073 -0.015530264 -0.121372275
0001c0 8b f9 22 bc 22 97 11 bb 43 22 ce 3d 2c 73 e4 bc
       -0.009947191 -0.0022215326 0.10065129 -0.02788695
0001d0 ac c2 7f bb 61 a0 9e 3d 4a 16 96 bd 56 cc 64 bd
       -0.0039025946 0.077454336 -0.0732847 -0.055858932
0001e0 31 aa b0 3d bf ea 13 3b 55 a0 d5 bd 63 40 83 bd
       0.086262114 0.002257034 -0.104309715 -0.06408765
0001f0 3a 42 ba 3d 01 58 b1 39 38 9e 45 bd 4d 0d 14 be
       0.09094663 0.0003382564 -0.048246592 -0.14458199
000200 95 77 e9 bd 44 df a7 bd f8 87 05 bd a3 72 89 3c
       -0.113997616 -0.081968814 -0.032600373 0.016778296
000210 b5 c2 60 3d 5f 76 cb bc 1f 30 5b bc 67 0d 14 3d
       0.054873187 -0.024836717 -0.013378172 0.036145594
000220 d9 94 bc 3c 0b ab 3f bd 4e 1c b8 bd 62 c1 88 bc
       0.023020195 -0.04679398 -0.08989774 -0.016693775
000230 0f e6 35 3d a5 0b b7 bd 9e ac 84 3d 71 43 ef bc
       0.044408854 -0.08937768 0.064782366 -0.029206963
000240 e2 63 c5 bd 1c 24 8e bd 48 b1 b9 bc 47 7c 15 3e
       -0.09638192 -0.06940481 -0.022667542 0.1459819
000250 f7 81 17 be 61 5c 9f bd 3c cf 0f bd 50 a3 22 be
       -0.14795671 -0.07781292 -0.035109743 -0.15882611
000260 0b a4 bd bc 58 b3 f0 bc 85 fa 0b be 04 33 84 bd
       -0.02314951 -0.029382393 -0.13669784 -0.06455043
000270 7d e5 7b 3d f1 f3 14 3d c7 a2 e7 bd 0a 23 02 3e
       0.061498154 0.036365453 -0.11310344 0.12708679
000280 67 41 da 3a 42 f9 19 be 6f ff b0 3d ca 5a 30 bd
       0.0016651571 -0.1503649 0.0864247 -0.043055333
000290 d0 ae e5 b9 33 5b 0e be 11 96 01 be 71 bf 34 3d
       -0.0004380853 -0.13901977 -0.12654902 0.044127885
0002a0 2d d1 b6 3d 9b 85 2a 3e 7f 3a 68 3d 36 0f 0f be
       0.08926616 0.16652529 0.05669641 -0.13970646
0002b0 08 d0 af bc 65 c1 18 3d 88 1f bd 3d 8e 6b bb bd
       -0.021461502 0.03729381 0.0923453 -0.09151374
0002c0 3c e4 02 be b0 c0 f9 bc 75 b6 df 3b cb c7 4d 3d
       -0.12782377 -0.030487388 0.0068271705 0.050239366
0002d0 3c 7f a3 bd 5f 1e 1d be 15 16 86 bd 74 f4 9a 3d
       -0.079832524 -0.15343617 -0.065471806 0.07566157
0002e0 9e 38 a6 bd f6 9e d4 bd 93 db 9b 3b b5 f6 28 be
       -0.081162676 -0.10381882 0.0047564 -0.16500361
0002f0 fb 45 f3 bb 02 21 1d 3e 44 3b b8 bd 9e 5d b8 bd
       -0.007424114 0.15344623 -0.08995679 -0.09002231
000300 a3 3b 3d 3d fe 8c 8a 3d f1 d8 52 bc cb dc 85 3d
       0.046199452 0.067651734 -0.012869106 0.065362535
000310 66 87 b3 3c 69 23 08 be 90 32 aa 3c 98 7b 07 3e
       0.021915149 -0.13294758 0.020776063 0.13230741
000320 9c 50 49 3c 40 45 a3 3d e1 80 25 3e 32 21 7a bc
       0.012287285 0.07972193 0.16162445 -0.015266703
000330 ef 95 c1 3b 74 32 ae bd a1 b0 af 3d 83 e4 09 3c
       0.005907766 -0.08505717 0.08578611 0.008416298
000340 84 09 7e bd b7 95 ad 3d f4 e5 41 3e c3 1f 96 bd
       -0.062020794 0.084758215 0.18935376 -0.07330277
000350 c9 94 b6 3c 81 aa 66 3c 1a 13 9e 3d 3c 1f 04 3e
       0.022287743 0.014078737 0.07718487 0.1290254
000360 a8 89 e2 3d 59 3f 63 bb 78 72 40 3d 6b f6 af bd
       0.11061412 -0.003467521 0.046984166 -0.085919224
000370 df b7 5d 3b 35 ce b6 3c fc 51 1b be fe 38 21 bd
       0.003383152 0.022315124 -0.15167993 -0.039360993
000380 47 04 e6 3d 57 e9 7b 3d 88 b8 b6 bd 82 97 ac 3d
       0.112312846 0.061501827 -0.08921915 0.08427335
000390 56 1b 36 3c 84 af 75 3d 50 56 b1 bd f1 f7 a4 bd
       0.011114916 0.059981838 -0.08659041 -0.080551036
0003a0 9b 19 d0 3d 56 04 9a bd 64 f8 a8 3d bf 13 af 3c
       0.10161134 -0.07520358 0.08250502 0.02137172
0003b0 e9 f8 1f be f3 22 fa 3d 91 3b bf 3d ac 14 24 bc
       -0.15622295 0.12213697 0.09337533 -0.010014694
0003c0 8e 92 35 3c ca f7 2c bd a9 9e ba bd 07 df 61 3d
       0.011082305 -0.042228498 -0.09112293 0.055144336
0003d0 f1 32 8a bc e2 51 a4 3d de 16 9b bd 08 42 40 3d
       -0.016869994 0.080234304 -0.07572721 0.046937972
0003e0 d2 00 c6 bd cb 41 fa bb fb cb b9 bd 05 bc e1 bc
       -0.09668125 -0.0076372377 -0.09072109 -0.027555475
0003f0 ea 39 27 3d 5f 03 b5 bd 82 99 90 3d 79 08 3c be
       0.040826716 -0.088385336 0.07060529 -0.18362607

bias f4 [64]
000000 a1 0d 74 3e 5f b8 dc 3b 24 20 9a 3b cc 31 03 bd
       0.23833324 0.006735846 0.0047035385 -0.032029912
000010 5d 7a 14 3e 43 0c 44 3e d0 93 d8 bd 94 57 2b 3e
       0.14499803 0.19145302 -0.10575068 0.16732627
000020 0e c7 f4 3d f1 e7 fc 3d a3 9f 2f 3d 79 f6 1c bd
       0.11952029 0.12348927 0.04287685 -0.038320992
000030 b9 85 c0 3c 4b 94 0c 3d e5 b7 34 3e 28 35 e2 bd
       0.023501264 0.03432111 0.17648275 -0.11045295
000040 2c c3 25 3e 1d 81 89 3c 15 90 82 ba 90 5b d9 b9
       0.16187733 0.016785199 -0.0009961153 -0.00041457685
000050 b5 03 53 3d 4a 24 64 3e 6e 7b 13 bd 0e 16 15 3d
       0.051517207 0.22279468 -0.036006384 0.036397986
000060 86 0f 3e 3d 0c e9 32 be b3 83 6b 3d a4 8a 59 3d
       0.046401523 -0.17471713 0.057498645 0.053110734
000070 04 ca 1a 3e 91 44 0a be e7 e7 99 3d b5 ab a0 bd
       0.15116125 -0.13502719 0.07514935 -0.078452505
000080 79 b7 75 3d fc e9 83 3d ab 7f e6 3d 2e 95 26 be
       0.059989426 0.06441113 0.112548195 -0.16267845
000090 e5 ac 2e 3d 45 c8 fc 3c 98 71 3a be fe 7a 8f 3c
       0.042645354 0.030857215 -0.18207395 0.017514702
0000a0 6a 22 06 3e 94 6e 5c 3d b6 ec f2 bd 43 e0 26 3e
       0.13099065 0.053816393 -0.11861555 0.16296487
0000b0 6d 3c 65 3d 5a a1 11 be 35 d2 11 bd e3 bd 17 be
       0.05596583 -0.14221707 -0.03560086 -0.1481853
0000c0 f6 f5 2c 3e cf e9 5b 3d d3 a7 14 bd 29 c1 e8 bc
       0.16890702 0.053689774 -0.036292862 -0.028412418
0000d0 34 79 71 3d 9c 0c cb bd a4 62 52 3e 7e e0 23 3e
       0.05895348 -0.099145144 0.20545441 0.16003606
0000e0 a9 fd be 3d 59 c6 20 3e d2 ce 1e bd 43 d0 7a 3c
       0.093257256 0.15700664 -0.038771458 0.0153084425
0000f0 bc ea ac bd 77 ef 23 3e 62 b6 86 3d 0a 45 60 3b
       -0.084432095 0.16009317 0.065777555 0.0034220838

weight f4 [2, 64]
000000 29 14 89 bc 67 f7 8f bd 53 2d 0e be 15 cd 51 bd
       -0.016733246 -0.0702961 -0.13884477 -0.051220972
000010 ed 17 41 be 19 25 8d bd d6 6c 72 bc 68 16 4c bd
       -0.18856783 -0.068918414 -0.014796456 -0.049826056
000020 6a 93 a8 bd c6 30 2e be 9b 24 4b 3d 29 dc c0 bb
       -0.08231242 -0.17010793 0.049595457 -0.00588562
000030 c5 b1 0b bd 5d 0c fb bd 2d 3f 0e be 8f 56 82 bd
       -0.03410508 -0.122582175 -0.13891287 -0.06364166
000040 fc 1f be bd 76 a6 eb bd 1a 66 d4 bc 5d b7 29 3d
       -0.09283444 -0.11506359 -0.025927592 0.041434634
000050 04 41 27 be bd d9 3e be e3 60 0c be 0c f7 07 be
       -0.16333395 -0.18637748 -0.13708834 -0.13277835
000060 ad 0c f2 bd 32 1b 25 3d dd 6a aa bc 60 69 cc bd
       -0.11818824 0.04030914 -0.02080291 -0.09981036
000070 e2 98 37 be 39 71 fc bc ee c4 5d bd 8f 58 16 3d
       -0.17929414 -0.030815708 -0.054142885 0.03670555
000080 d7 cf 8a bc d2 1f bc 3d 80 1b dc bd f7 16 a6 3d
       -0.016944809 0.09185757 -0.10747433 0.08109849
000090 45 1d 2b bd 92 5a db 3c 0f 41 db 3c c4 c4 8f bd
       -0.04177596 0.026776586 0.02676442 -0.07019952
0000a0 4f 79 31 be 91 96 31 3d 11 8a 8a 3c ee 88 88 bd
       -0.17331432 0.043356482 0.016911538 -0.06666742
0000b0 07 6b ce bc 1f bb aa 3d cc 63 3f 3d b2 de 57 3d
       -0.025197519 0.08336472 0.046726033 0.052702613
0000c0 38 2b 09 bc fd 27 e0 bd 1a 8b e4 bd e7 f7 06 bd
       -0.008372121 -0.10945127 -0.11159344 -0.03295126
0000d0 c8 f3 84 bd 18 31 bb 3d 4f 58 fd bc 29 68 0b 3d
       -0.0649181 0.09140223 -0.030925898 0.03403488
0000e0 54 9c 91 bd 77 3b e0 bd e2 60 84 bd be 57 e1 bc
       -0.07109895 -0.10948842 -0.064637914 -0.027507659
0000f0 e5 47 68 bb 18 9c 36 be 8f ad d9 bc 67 2a c9 3b
       -0.0035443243 -0.17832983 -0.026572017 0.006139088
000100 8b 24 dc 3d a8 ab 4f bd 3c ab 32 bd 39 b0 c9 3d
       0.107491575 -0.050700814 -0.043620333 0.09848065
000110 41 a3 25 3e bb 15 6b 3e 12 9f d3 bc e0 aa 07 3e
       0.16175558 0.22957508 -0.025832687 0.13248777
000120 33 73 1c 3d 5f 2a f9 3c 7f 22 15 3d b4 4e 0f 3d
       0.0381958 0.030415712 0.03640985 0.034987167
000130 f8 ff 1b 3c 4a 7e 30 3d 80 cd 0d 3e b1 7d ae bd
       0.009521477 0.04308919 0.13847923 -0.085200675
000140 56 8f 09 bc a7 9d 49 3b 26 7c 48 bd b6 41 b2 3d
       -0.00839599 0.0030764134 -0.048946522 0.087039396
000150 de fe 54 bd 62 c7 a1 3c d4 2d 05 3d 5b e7 96 bd
       -0.052000873 0.019748393 0.03251441 -0.07368346
000160 30 a7 a3 bc 38 73 da 3b 7b 33 0e 3e 9e 6c c2 3d
       -0.019977182 0.006666567 0.13886826 0.09493373
000170 be 9b 25 3e fe fa 80 bb 21 69 2e 3d 85 a9 57 bc
       0.16172692 -0.0039361706 0.042580727 -0.013162975
000180 e6 ef d5 3d c5 8b fa 3d 32 1e 83 3d 69 16 41 bd
       0.104461476 0.1223369 0.06402244 -0.047140513
000190 a0 d1 9d 3d 30 ae d8 3d 53 3d 5a bd 69 53 0b 3e
       0.077059984 0.10580099 -0.05328114 0.13606037
0001a0 62 4d 26 3d 2f f2 c7 ba 81 65 30 bd 01 8f 4e 3d
       0.04060114 -0.0015254671 -0.04306555 0.050429348
0001b0 7f 6f c9 3d fc c2 0d bc 6c a9 bf 3d 27 bc a5 bd
       0.09835719 -0.008652445 0.093584865 -0.08092528
0001c0 d3 81 0d 3e 02 31 08 3e 0e 0f 8d bd bc 1d 2b bd
       0.13819055 0.13299945 -0.06887637 -0.041776404
0001d0 93 31 43 bd 45 da de 3c ff 42 4b 3e a5 a7 31 3e
       -0.0476547 0.027203688 0.19849776 0.17349108
0001e0 ed 2a 10 bb cf c4 54 3d f2 b2 a2 bd bc aa f0 3d
       -0.0021998242 0.051945504 -0.07944287 0.11751315
0001f0 ac 96 ab 3d 5a 5b 73 3c ee d3 a5 bc 35 a5 90 3d
       0.08378348 0.014853323 -0.020242658 0.07062761

bias f4 [2]
000000 7b b8 ea bd da 40 4c 3e
       -0.11460968 0.19946614
